my_custom_model/activate_assistant_float16.tflite (tflite, 107468 bytes, 9 tensors)

arith.constant2 f2 [1, 32]
1.036 1.109 0.9736 1.002 1.095 1.218 1.224 1.238
1.191 1.329 1.049 1.231 1.181 1.016 1.041 1.111
1.262 1.01 0.9946 0.948 1.037 1.212 1.258 1.001
1.367 1.089 1.067 1.039 0.989 1.096 1.083 1.093
00000000: 253c 703c ca3b 023c 613c df3c e53c f43c
00000010: c43c 513d 323c ed3c b93c 103c 2a3c 723c
00000020: 0c3d 0a3c f53b 963b 263c d93c 083d 013c
00000030: 783d 5b3c 453c 283c e93b 623c 553c 5f3c

arith.constant3 f2 [1, 32]
0.9863 1.003 1.012 0.9785 0.9673 1.038 1.004 0.991
1.038 0.989 0.993 1.012 0.985 1.04 0.9946 0.9766
0.97 1.0205 0.99 0.992 0.98 0.982 0.981 0.996
1.035 0.997 0.99 0.992 0.965 0.9985 0.9634 0.9946
00000000: e43b 033c 0c3c d43b bd3b 273c 043c ee3b
00000010: 273c e93b f23b 0c3c e13b 293c f53b d03b
00000020: c33b 153c ec3b f03b d73b db3b d93b f83b
00000030: 243c fa3b ec3b f03b b83b fd3b b53b f53b

arith.constant4 f2 [1, 32]
0.03595 0.0872 -0.02522 -0.00227 0.0804 0.2184 0.2219 0.2257
0.2128 0.2603 0.05173 0.2303 0.2091 0.004536 0.05548 0.0826
0.2417 -0.00328 -0.004944 -0.04324 0.04163 0.2179 0.2365 0.01573
0.278 0.05255 0.03677 0.0446 -0.01949 0.07623 0.03622 0.0787
00000000: 9a28 952d 75a6 a698 252d fd32 1a33 3933
00000010: cf32 2a34 9f2a 5f33 b132 a51c 1a2b 492d
00000020: bc33 b89a 109d 89a9 5429 f932 9133 0724
00000030: 7334 ba2a b528 b529 fda4 e12c a328 092d

arith.constant5 f2 [1, 32]
-0.02101 0.00922 0.010376 -0.01791 0.03268 0.00999 0.003513 -0.02399
0.00617 -0.006416 -0.0135 0.004486 -0.01993 0.0416 -0.013756 -0.01214
-0.02554 0.01202 -0.01554 -0.01222 0.00866 -0.011505 -0.0188 0.01156
0.01203 -0.0001704 -0.008125 -0.01741 0.002419 0.01384 -0.013084 -0.00065
00000000: 61a5 b820 5021 96a4 2f28 1d21 321b 24a6
00000010: 511e 929e e9a2 981c 1aa5 5329 0ba3 37a2
00000020: 8aa6 2722 f5a3 42a2 6f20 e4a1 d0a4 eb21
00000030: 2922 9589 29a0 75a4 f418 1623 b3a2 5391

arith.constant8 f2 [32]
-0.1285 0.1716 -0.11896 5.71e-05 -0.111 0.0496 0.06433 -0.1255
0.001299 -0.03558 -0.0296 -0.05978 0.1068 -0.05582 -0.1656 -0.07306
-0.05405 -0.152 -0.1234 0.0002866 0.0511 -0.1664 0.1755 0.0657
-0.006054 -0.07526 0.02217 0.03522 -0.1547 0.1963 -0.1687 0.01631
00000000: 1db0 7e31 9daf be03 1baf 592a 1e2c 04b0
00000010: 5215 8ea8 94a7 a7ab d62e 25ab 4db1 adac
00000020: ebaa ddb0 e6af b20c 8a2a 53b1 9e31 342c
00000030: 339e d1ac ad25 8228 f3b0 4832 66b1 2d24

arith.constant9 f2 [32]
-0.0054 -0.02046 -0.00518 0.00755 -0.00955 0.01223 -0.005337 -0.003216
-0.005104 0.02594 -3.356e-05 0.003464 0.0163 -0.02802 0.00943 0.000727
-0.00835 0.0164 -0.01225 0.00365 2.235e-05 -0.0201 0.01234 -0.014175
0.0089 0.000444 -0.001096 -0.02673 0.02055 0.02864 0.003092 0.01085
00000000: 889d 3da5 4e9d bb1f e4a0 4322 779d 969a
00000010: 3a9d a426 3382 181b 2c24 2ca7 d420 f511
00000020: 46a0 3324 46a2 7a1b 7701 25a5 5122 42a3
00000030: 8f20 460f 7d94 d8a6 4325 5527 551a 8e21

arith.constant10 f2 [32, 1536]
0.01216 -0.013565 0.0206 -0.03772 -0.00755 -0.01877 0.007156 0.00581
-0.010315 0.01085 -0.003794 0.003384 -0.03165 0.02013 0.01735 -0.01111
-0.014496 -0.015236 0.01704 -0.01932 0.00232 -0.01904 -0.02188 -0.0003152
0.0223 0.01672 0.010796 -0.01591 0.02498 0.001337 0.0219 -0.01706
-0.01109 0.01342 0.010284 0.015076 0.01875 0.01485 -0.0211 -0.007385
-0.001845 0.01222 0.002308 -0.02371 -0.02466 -0.02257 0.00567 0.001009
-0.0191 -0.004246 -0.003199 -0.01409 -0.00212 0.00243 0.01444 -0.0002143
0.01416 0.011566 0.00661 0.01461 -0.007713 -0.02115 0.003525 -0.0002816
-0.01888 0.01884 0.01027 -0.0177 -0.0009675 0.013084 -0.02888 0.02437
0.004143 0.01008 -0.006466 -0.02173 0.01729 0.012726 0.00793 0.00768
-0.001034 0.006817 -0.0004368 -0.015114 -0.000646 -0.01455 0.001491 0.00407
0.03 0.01554 -0.015175 0.006252 -0.000882 0.02408 0.006184 0.00284
0.002548 0.01345 0.01116 -0.004242 0.008255 0.01149 -0.0001483 0.00538
-0.0294 -0.00795 0.003399 0.01675 -0.01428 -0.02042 0.00748 0.01538
-0.00787 0.03152 -0.012695 -0.01625 -0.014305 0.02383 -0.021 0.01953
-0.02019 0.01834 -0.02489 -0.007015 -0.0097 -0.02719 -0.002125 0.01074
0.01634 0.006752 -0.01339 0.01936 0.00638 -0.00849 0.001418 -0.00757
0.00997 -0.01642 -0.02144 0.002693 -0.02415 0.01205 0.00967 -0.01153
-0.005054 -0.00916 -0.01021 -0.00643 0.002829 0.02579 0.013275 0.01148
0.02151 0.02211 0.00868 0.01732 0.02744 -0.01048 0.01758 -0.01415
0.001974 0.01569 0.01137 -0.003866 -0.00901 -0.005245 0.00868 0.00932
0.007404 -0.02481 -0.00655 0.02051 -0.012764 -0.007782 0.014694 -0.00803
-0.01184 -0.001111 0.01787 0.02101 0.02377 -0.009125 -0.0171 -0.01057
-0.0053 0.0163 0.004177 0.001608 -0.001593 0.0154 -0.02083 0.001167
0.00889 0.02661 -0.01747 -0.006554 -0.005535 0.02486 -0.007103 -0.001866
-0.01101 -0.0003242 0.005848 -0.02333 -0.01973 -0.0185 -0.02223 -0.01857
-0.01245 0.01872 -0.00186 -0.00474 0.0197 -0.00839 -0.002596 -0.02383
-0.0183 0.02145 -0.00808 0.001659 -0.01174 -0.02553 0.02502 0.005543
0.006016 0.0007133 0.02605 -0.00835 0.00974 0.02142 0.0173 -0.0003567
-0.01787 0.01761 0.004192 -0.0113 -0.0043 -0.01342 0.01336 -0.0067
0.009514 -0.003683 -0.002726 -0.006565 -0.01302 0.002817 -0.01851 -0.011
0.01604 0.001526 0.006763 0.0092 0.01749 -0.01984 0.006172 0.01828
00000000: 3a22 f2a2 4625 d4a8 bb9f cea4 541f f31d
00000010: 48a1 8e21 c59b ee1a 0da8 2725 7124 b0a1
00000020: 6ca3 cda3 5d24 f2a4 c018 e0a4 9aa5 2a8d
00000030: b525 4824 8721 13a4 6526 7a15 9b25 5ea4
00000040: aea1 df22 4421 b823 cd24 9a23 67a5 909f
00000050: 8f97 4222 ba18 12a6 50a6 c7a5 ce1d 2214
00000060: e4a4 599c 8d9a 37a3 5798 fa18 6523 068b
00000070: 4023 ec21 c51e 7b23 e69f 6aa5 381b 9d8c
00000080: d5a4 d324 4221 88a4 ed93 b322 65a7 3d26
00000090: 3e1c 2921 9f9e 90a5 6d24 8422 0f20 dd1f
000000a0: 3c94 fb1e 288f bda3 4b91 73a3 1b16 2b1c
000000b0: ae27 f523 c5a3 671e 3a93 2a26 551e d119
000000c0: 3819 e322 b721 589c 3a20 e221 dc88 821d
000000d0: 87a7 12a0 f61a 4a24 50a3 3aa5 a91f e023
000000e0: 08a0 0928 80a2 29a4 53a3 1a26 60a5 0025
000000f0: 2ba5 b224 5fa6 2f9f f7a0 f6a6 5a98 8021
00000100: 2f24 ea1e dba2 f524 881e 59a0 cf15 c09f
00000110: 1b21 34a4 7da5 8419 2fa6 2b22 f320 e7a1
00000120: 2d9d b1a0 3aa1 969e cb19 9a26 cc22 e121
00000130: 8225 a925 7220 6f24 0627 5ea1 8024 3fa3
00000140: 0b18 0424 d221 eb9b 9da0 5f9d 7220 c620
00000150: 951f 5aa6 b59e 4025 89a2 f89f 8623 1da0
00000160: 10a2 8d94 9324 6125 1626 aca0 61a4 69a1
00000170: 6d9d 2c24 471c 9616 8696 e323 55a5 c814
00000180: 8d20 d026 79a4 b69e ab9d 5d26 469f a597
00000190: a3a1 508d fd1d f9a5 0da5 bca4 b1a5 c1a4
000001a0: 60a2 cb24 9e97 db9c 0b25 4ca0 5199 1aa6
000001b0: afa4 7e25 23a0 cc16 03a2 89a6 6826 ad1d
000001c0: 291e d811 ab26 46a0 fd20 7c25 6e24 d88d
000001d0: 93a4 8224 4b1c c9a1 679c dfa2 d722 dc9e
000001e0: df20 8b9b 9599 b99e aba2 c519 bda4 a2a1
000001f0: 1b24 4016 ed1e b620 7a24 14a5 521e ae24

arith.constant11 f2 [32, 32]
0.11993 0.0404 0.1477 0.06604 -0.1614 -0.1088 0.192 0.06198
-0.08966 -0.11456 -0.07056 -0.03986 0.099 0.05505 -0.05588 0.02771
-0.155 0.013855 -0.1309 0.1462 0.0641 0.06415 0.11786 0.04123
0.1343 -0.1244 0.1274 0.04358 -0.06165 0.07153 0.0806 -0.0408
0.172 0.02519 -0.0879 0.08527 0.1312 -0.1149 -0.0264 0.0751
-0.2126 -0.1824 -0.03455 -0.003 -0.0765 -0.0348 0.03217 0.03088
-0.0282 0.001077 0.00809 0.1288 0.0166 0.08093 0.05853 -0.1671
0.1254 -0.06094 0.0914 0.1356 -0.046 0.0841 -0.02855 -0.04437
0.08923 0.0587 -0.02737 0.07837 -0.02126 0.0653 -0.02661 -0.1229
0.003471 -0.02429 0.1267 -0.1005 -0.05765 -0.09314 -0.1092 0.04865
0.05267 -0.06744 0.07733 0.10944 0.0825 -0.137 -0.00416 -0.11804
-0.05078 0.203 -0.1196 0.013824 -0.0805 -0.05203 0.1797 -0.010925
0.01516 0.02455 0.1169 0.1287 0.04147 0.01659 0.0326 -0.1747
0.1556 0.1354 0.1412 -0.06244 0.06287 -0.11066 -0.1193 0.1411
-0.1114 -0.0383 0.1589 0.0173 -0.05002 -0.01263 0.1318 -0.05093
-0.1328 -0.1505 0.08105 0.01648 -0.1509 -0.1703 0.05637 -0.0277
0.05344 -0.05634 -0.02325 0.1459 0.01114 -0.073 0.1456 0.06793
-0.1359 0.0722 -0.0512 -0.1221 -0.0898 0.1401 -0.09607 -0.08136
-0.027 0.11536 0.004143 0.1215 -0.00489 0.098 0.07733 -0.03943
0.0727 0.005756 -0.013794 0.02023 -0.1362 0.1247 0.05902 -0.1786
-0.07623 -0.01918 -0.0854 -0.0777 -0.117 0.134 -0.0561 0.1235
0.04092 0.2162 -0.113 -0.0829 0.00651 0.01915 0.1511 -0.11163
0.0785 -0.01822 -0.0671 -0.1506 -0.1461 -0.1432 -0.0196 0.0827
0.04227 -0.0973 -0.02594 0.0743 0.1473 0.01356 -0.1183 0.1155
-0.1241 -0.03008 -0.1184 0.06137 0.1619 0.07294 -0.139 -0.1621
0.14 -0.02466 -0.11584 -0.1902 -0.1037 0.006542 0.0672 0.09705
-0.0741 0.0556 0.1298 0.1666 0.1796 -0.0937 -0.01631 0.1718
-0.01785 -0.1791 0.02275 -0.02809 -0.04932 -0.147 0.1031 0.06064
0.0735 -0.09766 -0.04254 0.08325 -0.1671 0.02536 -0.04672 -0.000272
0.1577 0.1527 -0.11505 0.0399 0.1138 0.03091 -0.021 -0.1127
0.1473 -0.1509 -0.1267 -0.09485 0.1484 -0.1428 -0.07086 -0.10223
0.11 -0.013855 -0.04193 -0.1465 -0.09845 0.1711 -0.1764 -0.08234
00000000: ad2f 2c29 ba30 3a2c 2ab1 f7ae 2532 ef2b
00000010: bdad 55af 84ac 1aa9 562e 0c2b 27ab 1827
00000020: f6b0 1823 30b0 ae30 1a2c 1b2c 8b2f 4729
00000030: 4c30 f6af 1430 9429 e4ab 942c 292d 39a9
00000040: 8131 7326 a0ad 752d 3330 5baf c2a6 ce2c
00000050: ceb2 d6b1 6ca8 259a e5ac 74a8 1e28 e827
00000060: 38a7 6914 2420 1f30 4024 2e2d 7e2b 59b1
00000070: 0330 cdab d92d 5730 e3a9 622d 4fa7 aea9
00000080: b62d 832b 02a7 042d 71a5 2e2c d0a6 deaf
00000090: 1c1b 38a6 0e30 6fae 61ab f6ad fdae 3a2a
000000a0: be2a 51ac f32c 012f 482d 62b0 439c 8eaf
000000b0: 80aa 7f32 a8af 1423 27ad a9aa c031 98a1
000000c0: c323 4926 7b2f 1e30 4f29 3f24 2c28 97b1
000000d0: fb30 5530 8530 feab 062c 15af a3af 8430
000000e0: 21af e7a8 1631 6e24 67aa 77a2 3830 85aa
000000f0: 40b0 d1b0 302d 3824 d4b0 73b1 372b 17a7
00000100: d72a 36ab f4a5 ab30 b421 acac a930 592c
00000110: 59b0 9f2c 8eaa d0af bfad 7c30 26ae 35ad
00000120: e9a6 622f 3e1c c72f 029d 462e f32c 0ca9
00000130: a72c e51d 10a3 2e25 5cb0 fb2f 8e2b b7b1
00000140: e1ac e9a4 77ad f9ac 7daf 4a30 2eab e72f
00000150: 3d29 eb32 3baf 4ead ab1e e724 d630 25af
00000160: 062d aaa4 4bac d2b0 adb0 95b0 05a5 4b2d
00000170: 6929 3aae a4a6 c12c b730 f122 92af 642f
00000180: f1af b3a7 94af db2b 2e31 ab2c 73b0 30b1
00000190: 7b30 50a6 6aaf 16b2 a3ae b31e 4d2c 362e
000001a0: beac 1e2b 2730 5531 bf31 ffad 2da4 7f31
000001b0: 92a4 bbb1 d325 31a7 50aa b4b0 992e c32b
000001c0: b42c 40ae 72a9 542d 59b1 7e26 fba9 758c
000001d0: 0c31 e330 5daf 1b29 482f ea27 60a5 36af
000001e0: b730 d4b0 0eb0 12ae c030 92b0 89ac 8bae
000001f0: 0a2f 18a3 5ea9 b0b0 4dae 7a31 a5b1 45ad

arith.constant12 f2 [1, 32]
0.1549 0.075 -0.02133 -0.02884 0.1056 -0.3457 -0.3264 -0.339
-0.3293 -0.3318 0.1814 -0.2937 -0.332 0.1283 0.0674 0.166
-0.2976 -0.02094 -0.0896 -0.01907 0.04526 -0.3425 -0.3142 -0.02992
-0.343 0.1483 0.123 0.0544 -0.0963 0.1521 0.03964 0.1267
00000000: f530 cd2c 76a5 62a7 c22e 88b5 39b5 6db5
00000010: 45b5 4fb5 ce31 b3b4 50b5 1b30 502c 5031
00000020: c3b4 5ca5 bcad e2a4 cb29 7bb5 07b5 a9a7
00000030: 7db5 bf30 df2f f72a 2aae de30 1329 0e30
