my_custom_model/activate_assistant.tflite (tflite, 206976 bytes, 9 tensors)

arith.constant f4 [1, 32]
000000 7f 9d 1e 3e a0 ad 99 3d 23 c6 ae bc be 4a ec bc
       0.15489767 0.075038195 -0.021334713 -0.028844234
000010 e8 30 d8 3d fe 03 b1 be 12 1f a7 be 70 a8 ad be
       0.10556203 -0.34573358 -0.32640892 -0.3391757
000020 8e a7 a8 be c4 da a9 be 92 c7 39 3e 93 51 96 be
       -0.32940334 -0.33174717 0.18142536 -0.2935911
000030 08 fa a9 be 28 52 03 3e c9 0a 8a 3d 26 f7 29 3e
       -0.3319857 0.12824309 0.06740338 0.16598186
000040 79 58 98 be 63 8c ab bc 0f 8a b7 bd 88 33 9c bc
       -0.29755 -0.020940965 -0.089618795 -0.01906754
000050 9f 5b 39 3d c9 59 af be a8 ea a0 be 80 2d f5 bc
       0.045253392 -0.34248188 -0.3142903 -0.029928923
000060 82 90 af be f2 e9 17 3e 90 e8 fb 3d 43 d3 5e 3d
       -0.34289938 0.14835337 0.12300217 0.054400694
000070 6b 32 c5 bd 2e b1 1b 3e 53 61 22 3d d9 b0 01 3e
       -0.09628757 0.15204307 0.039643597 0.12665118

arith.constant1 f4 [32, 32]
000000 70 a9 f5 3d 97 8c 25 3d 2a 44 17 3e 49 4b 87 3d
       0.11995208 0.04041728 0.14772096 0.066061564
000010 1c 40 25 be 56 d4 de bd 5e 94 44 3e 29 d5 7d 3d
       -0.16137737 -0.108803436 0.19197223 0.061970863
000020 5d ae b7 bd 9f a5 ea bd f7 77 90 bd d4 3f 23 bd
       -0.08968804 -0.11457371 -0.070541315 -0.039855793
000030 b4 b9 ca 3d 86 7a 61 3d bb e0 64 bd 8f ff e2 3c
       0.09898701 0.055048488 -0.055878382 0.02770975
000040 c4 ba 1e be 47 fc 62 3c 62 f2 05 be f4 cb 15 3e
       -0.15500933 0.013854093 -0.13080743 0.14628583
000050 d7 4f 83 3d 04 6a 83 3d 65 60 f1 3d fb dd 28 3d
       0.064117126 0.06416705 0.11785964 0.041227322
000060 c2 72 09 3e e9 b9 fe bd 3e 81 02 3e 4b 7e 32 3d
       0.13422683 -0.12437803 0.12744614 0.043577474
000070 08 7f 7c bd 4b 8f 92 3d 40 14 a5 3d 83 1e 27 bd
       -0.061644584 0.07156237 0.08060503 -0.040800583
000080 e5 2c 30 3e 0d 61 ce 3c f3 0a b4 bd 04 96 ae 3d
       0.17204626 0.025192762 -0.08791151 0.08524707
000090 a4 63 06 3e 1a 59 eb bd 5d 43 d8 bc 50 b1 99 3d
       0.13123947 -0.11491604 -0.026399309 0.07504523
0000a0 a4 cb 59 be 8b ba 3a be d1 8e 0d bd 92 9d 44 bb
       -0.21269089 -0.18235223 -0.03456003 -0.0030001146
0000b0 80 a0 9c bd e5 85 0e bd c5 b8 03 3d 6c f6 fc 3c
       -0.076478004 -0.03479566 0.03215863 0.030879222
0000c0 82 0d e7 bc 24 17 8d 3a d3 83 04 3c 39 dc 03 3e
       -0.028204683 0.0010764343 0.00808807 0.12876977
0000d0 46 f4 87 3c e1 c2 a5 3d 60 cc 6f 3d e9 12 2b be
       0.01659597 0.08093811 0.058544517 -0.16706432
0000e0 98 5d 00 3e 78 9a 79 bd 9f 28 bb 3d dc da 0a 3e
       0.12535703 -0.06093833 0.09138607 0.1356005
0000f0 6c 5d 3c bd c5 31 ac 3d c1 d3 e9 bc 5c ba 35 bd
       -0.04598753 0.0840793 -0.028543355 -0.04436718
000100 b9 ce b6 3d cc 53 70 3d 8f 3f e0 bc a3 8a a0 3d
       0.08926148 0.058673665 -0.027374057 0.07838943
000110 8f 26 ae bc 4a c5 85 3d 76 02 da bc b9 bc fb bd
       -0.02125862 0.065317705 -0.026612502 -0.12291855
000120 37 7d 63 3b c0 09 c7 bc 28 bb 01 3e 26 dd cd bd
       0.0034712085 -0.024296641 0.1266905 -0.10051946
000130 af 19 6c bd fa b4 be bd 39 9f df bd 8e 31 47 3d
       -0.05764168 -0.09311862 -0.10919041 0.048631243
000140 9b c7 57 3d c5 19 8a bd 8a 69 9e 3d 37 16 e0 3d
       0.052680593 -0.067431964 0.07734974 0.10941737
000150 dc 05 a9 3d ff 33 0c be 37 60 88 bb 85 b4 f1 bd
       0.08253071 -0.1369171 -0.0041618603 -0.118020095
000160 8f 01 50 bd 33 d2 4f 3e 99 05 f5 bd 46 8b 62 3c
       -0.050782736 0.20295028 -0.11963958 0.013827151
000170 01 d3 a4 bd d3 1b 55 bd fc 07 38 3e d6 f5 32 bc
       -0.08048058 -0.05202849 0.17971796 -0.01092287
000180 48 50 78 3c cd 1c c9 3c 9d 6b ef 3d a0 c2 03 3e
       0.015155859 0.024549866 0.116904475 0.12867212
000190 86 ec 29 3d 16 e6 87 3c 99 87 05 3d ae ea 32 be
       0.041485332 0.016589206 0.03260002 -0.17472336
0001a0 5d 56 1f 3e f0 95 0a 3e de aa 10 3e 53 b1 7f bd
       0.15560289 0.13533759 0.1412768 -0.06242497
0001b0 42 b1 80 3d 7c ab e2 bd 1a 5a f4 bd 27 7b 10 3e
       0.06283809 -0.11067864 -0.11931248 0.14109479
0001c0 a5 2d e4 bd 32 eb 1c bd f6 c7 22 3e 4f ce 8d 3c
       -0.111415185 -0.038310237 0.15896592 0.01731029
0001d0 ae e5 4c bd b1 e5 4e bc 0b 09 07 3e 49 94 50 bd
       -0.050023727 -0.012628005 0.13187043 -0.050922666
0001e0 df 05 08 be e1 26 1a be 87 f3 a5 3d 79 f5 86 3c
       -0.1328349 -0.15053894 0.0810309 0.016474472
0001f0 58 8c 1a be bb 5f 2e be 55 d9 66 3d ad e0 e2 bc
       -0.150926 -0.17028706 0.056359608 -0.027695024
000200 25 e5 5a 3d bd b3 66 bd 7f 8c be bc 99 53 15 3e
       0.053441186 -0.056323756 -0.023260353 0.14582671
000210 85 7d 36 3c 4b 77 95 bd bb 11 15 3e 9a 26 8b 3d
       0.011138325 -0.07298144 0.14557545 0.06794472
000220 71 1b 0b be b0 ee 93 3d bf c9 51 bd 3a 09 fa bd
       -0.13584687 0.072232604 -0.05121779 -0.12208791
000230 23 e5 b7 bd b6 8f 0f 3e 12 b7 c4 bd 44 af a6 bd
       -0.08979251 0.14019665 -0.096052304 -0.08138898
000240 44 2d dd bc be 32 ec 3d 36 bb 87 3b 8c d1 f8 3d
       -0.026999123 0.11533116 0.0041421903 0.12149343
000250 3c 3b a0 bb 5b ca c8 3d 51 67 9e 3d db 76 21 bd
       -0.004889874 0.09804221 0.0773455 -0.03941999
000260 63 ec 94 3d 25 a9 bc 3b c5 05 62 bc 24 b8 a5 3c
       0.0727165 0.0057574683 -0.013795321 0.020229407
000270 8b 81 0b be 4d 5f ff 3d 0d ca 71 3d 5e d4 36 be
       -0.13623635 0.12469349 0.05903058 -0.17854449
000280 68 15 9c bd f3 19 9d bc 3d da ae bd 1f 2e 9f bd
       -0.076212704 -0.019177413 -0.085377194 -0.07772469
000290 a7 93 ef bd 7c 30 09 3e f1 c7 65 bd b1 d4 fc 3d
       -0.11698084 0.13397402 -0.056098882 0.12345255
0002a0 b3 94 27 3d b9 69 5d 3e 17 55 e7 bd 60 c9 a9 bd
       0.040913295 0.21622361 -0.112955265 -0.08290362
0002b0 98 5d d5 3b fe dd 9c 3c 11 c8 1a 3e 4a 95 e4 bd
       0.0065114014 0.019148823 0.15115382 -0.11161287
0002c0 1d b0 a0 3d 39 42 95 bc 06 5e 89 bd 2b 46 1a be
       0.07846091 -0.018220054 -0.06707387 -0.1506583
0002d0 f3 a9 15 be 29 a0 12 be 37 9e a0 bc ef 60 a9 3d
       -0.14615612 -0.14318909 -0.019606693 0.08270442
0002e0 a3 26 2d 3d 44 31 c7 bd 73 8a d4 bc 37 2b 98 3d
       0.042273175 -0.097261935 -0.025944924 0.074301176
0002f0 bd d2 16 3e 68 21 5e 3c f7 30 f2 bd 6a 81 ec 3d
       0.14728828 0.013557769 -0.118257456 0.11548121
000300 7d 2f fe bd fd 63 f6 bc 0a 87 f2 bd 12 5a 7b 3d
       -0.124114014 -0.030076975 -0.11842163 0.061365195
000310 1a bd 25 3e b9 6f 95 3d e5 53 0e be 9f f0 25 be
       0.16185418 0.072967 -0.1389919 -0.16205071
000320 8d 6c 0f 3e 20 02 ca bc bc 39 ed bd b5 be 42 be
       0.14006253 -0.024659216 -0.115832776 -0.19018061
000330 3e 6b d4 bd 26 60 d6 3b ed a8 89 3d d2 c5 c6 3d
       -0.10372017 0.0065422235 0.06721673 0.097057
000340 ef b3 97 bd b0 cb 63 3d 41 da 04 3e 73 a4 2a 3e
       -0.074073665 0.055614173 0.12973882 0.16664295
000350 db e3 37 3e 17 e3 bf bd 6d 96 85 bc 7d ef 2f 3e
       0.17958014 -0.09369486 -0.01630708 0.17181201
000360 14 37 92 bc 8b 58 37 be 4a 60 ba 3c a1 24 e6 bc
       -0.017848529 -0.1790487 0.022750992 -0.028093638
000370 12 f7 49 bd d6 72 16 be a6 21 d3 3d a2 58 78 3d
       -0.04930789 -0.14692244 0.10309152 0.0606314
000380 2d 72 96 3d 1b f3 c7 bd f8 4a 2e bd 13 7c aa 3d
       0.07345996 -0.097631656 -0.042551965 0.083244465
000390 ef 23 2b be af b3 cf 3c ad 6c 3f bd 8a a9 8e b9
       -0.16712926 0.025354235 -0.0467345 -0.00027210667
0003a0 8d 7b 21 3e 12 5a 1c 3e 90 a2 eb bd 7a 5d 23 3d
       0.15769787 0.15268734 -0.11505616 0.039884068
0003b0 c0 f4 e8 3d b5 47 fd 3c 09 fb ab bc 9d b8 e6 bd
       0.11374807 0.030917982 -0.020993726 -0.11265681
0003c0 6f e1 16 3e 3a 84 1a be 02 b2 01 be 89 3a c2 bd
       0.14734434 -0.15089503 -0.12665561 -0.09483821
0003d0 f1 f1 17 3e d5 32 12 be a1 10 91 bd 29 5d d1 bd
       0.14838387 -0.14277203 -0.0708325 -0.10222847
0003e0 d6 47 e1 3d 85 f5 62 bc 88 bb 2b bd 02 f8 15 be
       0.1100003 -0.013852482 -0.04192689 -0.14645389
0003f0 7a 9e c9 bd 78 41 2f 3e f0 a8 34 be 5e a8 a8 bd
       -0.0984468 0.17114818 -0.1764257 -0.082352385

arith.constant2 f4 [32, 1536]
000000 bc 4d 47 3c c6 42 5e bc 1b b7 a8 3c 46 8b 1a bd
       0.012164529 -0.013565725 0.020595124 -0.037730478
000010 02 5c f7 bb f8 bf 99 bc 4a 88 ea 3b 97 5c be 3b
       -0.00754881 -0.018768296 0.00715736 0.0058093774
000020 67 0e 29 bc 4d c6 31 3c 96 af 78 bb b4 ca 5d 3b
       -0.010318375 0.010850501 -0.0037946454 0.0033842744
000030 ea a2 01 bd 57 ef a4 3c 34 1e 8e 3c 09 0d 36 bc
       -0.031649508 0.020133657 0.017348386 -0.011111506
000040 e2 8f 6d bc a4 93 79 bc 19 91 8b 3c 0e 42 9e bc
       -0.014499636 -0.015232954 0.017036961 -0.019318607
000050 df f4 17 3b b0 08 9c bc 86 3d b3 bc c4 4b a5 b9
       0.0023186726 -0.019047111 -0.021879923 -0.00031527702
000060 e4 93 b6 3c 53 09 89 3c 17 dd 30 3c f7 6c 82 bc
       0.022287317 0.016728079 0.010794899 -0.0159211
000070 e2 9e cc 3c 22 48 af 3a 4e 6d b3 3c d1 b2 8b bc
       0.024978105 0.0013372938 0.021902706 -0.01705304
000080 af c4 35 bc 2a da 5b 3c 8a 80 28 3c 5a 09 77 3c
       -0.011094256 0.013418714 0.010284552 0.015077913
000090 18 a3 99 3c 0a 31 73 3c 4c d3 ac bc 4a f8 f1 bb
       0.018754527 0.014843235 -0.021096848 -0.0073843347
0000a0 bc d9 f1 ba bc 4a 48 3c 99 34 17 3b aa 45 c2 bc
       -0.0018451731 0.012224849 0.0023072122 -0.023714859
0000b0 2c fe c9 bc 35 db b8 bc 56 c5 b9 3b b4 32 84 3a
       -0.024657331 -0.022565464 0.005669276 0.0010085911
0000c0 8f 8e 9c bc 90 1a 8b bb f3 aa 51 bb b9 eb 66 bc
       -0.019110946 -0.00424511 -0.0031992763 -0.014094287
0000d0 17 ea 0a bb de 3d 1f 3b 08 a6 6c 3c 21 c7 60 b9
       -0.0021196657 0.002429835 0.014443882 -0.00021436486
0000e0 9c 05 68 3c 23 7d 3d 3c e1 a1 d8 3b 5c 6c 6f 3c
       0.014161494 0.011565479 0.0066110943 0.014613237
0000f0 ec c7 fc bb 2e 4c ad bc f7 f9 66 3b 84 a2 93 b9
       -0.007714262 -0.02115449 0.0035244206 -0.00028159108
000100 0c 94 9a bc 73 68 9a 3c 09 45 28 3c ef 06 91 bc
       -0.018869422 0.018848633 0.0102703655 -0.017703502
000110 be 9a 7d ba 85 58 56 3c 25 95 ec bc d2 a8 c7 3c
       -0.00096742425 0.013082628 -0.028879711 0.024372492
000120 25 c9 87 3b 55 1f 25 3c be db d3 bb 6e 00 b2 bc
       0.0041438513 0.010078271 -0.0064654043 -0.02172872
000130 3c 9b 8d 3c 88 74 50 3c 6e df 01 3c f2 a4 fb 3b
       0.017285936 0.012723096 0.007926805 0.007679575
000140 04 7c 87 ba a1 52 df 3b 12 05 e5 b9 4f 90 77 bc
       -0.0010336642 0.00681527 -0.0004368206 -0.015110089
000150 72 6a 29 ba 1c 51 6e bc 11 6e c3 3a 6f 62 85 3b
       -0.00064627 -0.014545705 0.0014910122 0.004070572
000160 49 cd f5 3c 6f 9b 7e 3c ce a2 78 bc ba dd cc 3b
       0.030005114 0.015539988 -0.015175534 0.006252018
000170 4b 38 67 ba d9 34 c5 3c c6 a9 ca 3b 65 15 3a 3b
       -0.0008820339 0.024073051 0.0061847894 0.00283941
000180 9a fc 26 3b dc 61 5c 3c f6 d7 36 3c 29 01 8b bb
       0.0025480152 0.013451066 0.011159888 -0.0042420817
000190 79 31 07 3c 30 31 3c 3c 28 8a 1b b9 10 41 b0 3b
       0.008251541 0.011486337 -0.00014833419 0.00537885
0001a0 8a d0 f0 bc 1e 42 02 bc 08 b4 5e 3b 92 30 89 3c
       -0.029396314 -0.007950334 0.0033981819 0.016746793
0001b0 e2 0d 6a bc 51 44 a7 bc 4a 24 f5 3b b5 f6 7b 3c
       -0.0142855365 -0.020418318 0.0074811326 0.015378644
0001c0 17 04 01 bc 53 27 01 3d 47 fe 4f bc d6 16 85 bc
       -0.00787451 0.031531643 -0.012694902 -0.01624624
0001d0 b4 5c 6a bc 07 41 c3 3c cf f7 ab bc 74 fb 9f 3c
       -0.014304329 0.023834718 -0.020992188 0.019529082
0001e0 07 52 a5 bc 7d 45 96 3c 86 d6 cb bc f1 db e5 bb
       -0.020180715 0.018343681 -0.024882566 -0.0070147444
0001f0 aa e5 1e bc a4 b9 de bc 92 42 0b bb f6 f0 2f 3c
       -0.009698311 -0.02718813 -0.0021249396 0.010738602
000200 6f e1 85 3c 91 30 dd 3b c2 60 5b bc 4c ab 9e 3c
       0.016342847 0.0067501743 -0.013389768 0.01936879
000210 a4 f3 d0 3b 8f 23 0b bc c1 d6 b9 3a 6e 06 f8 bb
       0.0063767005 -0.008492365 0.0014178382 -0.007569126
000220 c9 64 23 3c e7 7d 86 bc 1f 9a af bc 18 84 30 3b
       0.0099727595 -0.016417457 -0.021435795 0.0026934203
000230 6b e2 c5 bc 4c 6e 45 3c b8 5f 1e 3c 46 d9 3c bc
       -0.024155816 0.012050223 0.009666376 -0.011526411
000240 76 a2 a5 bb d3 2b 16 bc 01 43 27 bc fc cc d2 bb
       -0.0050547672 -0.009165722 -0.010208846 -0.0064331274
000250 1d 5d 39 3b 94 3c d3 3c c7 87 59 3c f9 18 3c 3c
       0.002828426 0.025785722 0.013277001 0.011480563
000260 b6 4d b0 3c 0e 1a b5 3c 4e 4f 0e 3c b9 d1 8d 3c
       0.02152143 0.02210715 0.0086859 0.017311918
000270 40 be e0 3c c9 c8 2b bc bd f3 8f 3c 4b d0 67 bc
       0.027434468 -0.010484883 0.017572278 -0.014148782
000280 d9 52 01 3b 3d 87 80 3c d0 3a 3a 3c fe 5f 7d bb
       0.001973322 0.015689487 0.011366561 -0.0038661952
000290 2f 91 13 bc 5c e1 ab bb b0 40 0e 3c a0 b7 18 3c
       -0.009006782 -0.005245371 0.008682415 0.009321123
0002a0 78 a1 f2 3b a1 3f cb bc 60 af d6 bb 3b 06 a8 3c
       0.0074045025 -0.024810614 -0.006551668 0.020510783
0002b0 81 12 51 bc 34 ff fe bb 67 ba 70 3c 36 9a 03 bc
       -0.012760759 -0.0077818874 0.014692879 -0.008032372
0002c0 82 0e 42 bc 4a 96 91 ba 75 64 92 3c b1 26 ac 3c
       -0.011844279 -0.0011107412 0.017870167 0.021014543
0002d0 ef b0 c2 3c e5 77 15 bc 57 1d 8c bc f1 28 2d bc
       0.02376601 -0.009122823 -0.017103834 -0.010568843
0002e0 1a 93 ad bb 26 88 85 3c 58 dc 88 3b d8 c4 d2 3a
       -0.005297077 0.016300272 0.0041766576 0.0016080393
0002f0 de c0 d0 ba 08 66 7c 3c 2d a3 aa bc 4d 06 99 3a
       -0.001592662 0.0154051855 -0.020829761 0.0011674851
000300 d5 a0 11 3c e0 f1 d9 3c d8 1f 8f bc 8d cf d6 bb
       0.008888443 0.026604593 -0.017471239 -0.0065555037
000310 fa 66 b5 bb 95 ac cb 3c 9e b8 e8 bb b0 a4 f4 ba
       -0.0055359574 0.024862567 -0.007102086 -0.0018664803
000320 df 53 34 bc 6c f8 a9 b9 cb 9c bf 3b cd 1d bf bc
       -0.011006325 -0.0003241928 0.0058475486 -0.02332964
000330 d8 a4 a1 bc 7e 87 97 bc de 21 b6 bc e0 19 98 bc
       -0.019731924 -0.018497225 -0.022232946 -0.018567026
000340 f9 fe 4b bc 80 6e 99 3c 6b bb f3 ba 70 6b 9b bb
       -0.012450927 0.018729448 -0.0018595284 -0.004743032
000350 8c 52 a1 3c 69 81 09 bc 8d 2d 2a bb b4 49 c3 bc
       0.019692682 -0.00839267 -0.0025967092 -0.023838855
000360 0e ee 95 bc 51 c2 af 3c d8 58 04 bc f5 8f d9 3a
       -0.01830199 0.021454962 -0.008077823 0.0016598689
000370 ba 6e 40 bc cc 2d d1 bc cd 0b cd 3c 51 a6 b5 3b
       -0.011745149 -0.025534533 0.025030041 0.005543508
000380 d3 10 c5 3b bd 02 3b 3a 4b 51 d5 3c 40 b2 08 bc
       0.0060139685 0.0007133892 0.02603974 -0.008343279
000390 30 96 1f 3c be 7d af 3c a7 bc 8d 3c 4a 00 bb b9
       0.009740397 0.021422263 0.01730187 -0.00035667635
0003a0 a0 5d 92 bc 40 38 90 3c 93 6b 89 3b 89 10 39 bc
       -0.01786691 0.017604947 0.004193732 -0.011295446
0003b0 2e e3 8c bb a4 e7 5b bc 07 e7 5a 3c 08 77 db bb
       -0.004299543 -0.013421927 0.013360745 -0.0066975392
0003c0 d6 d2 1b 3c f7 63 71 bb 50 ac 32 bb 23 12 d7 bb
       0.009510716 -0.0036833265 -0.002726335 -0.0065634414
0003d0 13 55 55 bc 6f a5 38 3b 5f 93 97 bc cd 47 34 bc
       -0.013020772 0.0028174778 -0.01850289 -0.011003447
0003e0 4a 5c 83 3c 5a fc c7 3a 70 9d dd 3b bf c2 16 3c
       0.016035218 0.0015257702 0.006763153 0.0092017045
0003f0 d7 33 8f 3c 8d 7e a2 bc 9f 35 ca 3b cd be 95 3c
       0.017480774 -0.019835735 0.006170943 0.018279457

model_8/tf.__operators__.add/AddV2/y f4 [32]
000000 e4 05 b1 bb 8e a5 a7 bc ae c2 a9 bb eb 51 f7 3b
       -0.0054023135 -0.020464685 -0.0051806783 0.007547607
000010 0b 7f 1c bc de 68 48 3c 4d d8 ae bb 34 b8 52 bb
       -0.009551774 0.012232034 -0.0053358437 -0.003215325
000020 ac 37 a7 bb 2c 89 d4 3c e1 b8 0c b8 62 02 63 3b
       -0.005103072 0.025944315 -3.3550783e-05 0.0034638871
000030 02 77 85 3c 14 89 e5 bc ee 76 1a 3c 9b 9b 3e 3a
       0.016292099 -0.028019466 0.009427769 0.0007271112
000040 1a b7 08 bc 08 6a 86 3c 4a bd 48 bc d2 39 6f 3b
       -0.008344436 0.016407982 -0.012252161 0.003650297
000050 46 7d bb 37 ee a8 a4 bc 93 10 4a 3c af 4e 68 bc
       2.2350472e-05 -0.020100083 0.012333053 -0.014178916
000060 13 ee 11 3c a7 b3 e8 39 2c 99 8f ba 7b 03 db bc
       0.008906859 0.0004438434 -0.0010955683 -0.026735058
000070 3a 60 a8 3c 5d a4 ea 3c 46 94 4a 3b 98 b4 31 3c
       0.020553697 0.028642828 0.0030911132 0.01084628

model_8/tf.__operators__.add_1/AddV2/y f4 [32]
000000 45 99 03 be 6b bb 2f 3e e1 9f f3 bd 30 9a 6f 38
       -0.12851436 0.17161338 -0.11895729 5.712564e-05
000010 c3 6a e3 bd 60 20 4b 3d 39 c3 83 3d a3 8d 00 be
       -0.111043476 0.049591422 0.0643372 -0.1255403
000020 73 31 aa 3a 40 b9 11 bd 36 83 f2 bc b9 d5 74 bd
       0.0012984708 -0.03557706 -0.029603582 -0.059774134
000030 62 c7 da 3d e6 94 64 bd a2 ac 29 be a4 a0 95 bd
       0.106825605 -0.055806063 -0.1656976 -0.073060304
000040 cf 51 5d bd 7b a6 1b be ad bc fc bd 5b 42 96 39
       -0.054033097 -0.15200226 -0.123406745 0.00028659668
000050 ad 44 51 3d 58 5d 2a be 3a c6 33 3e 73 78 86 3d
       0.051090885 -0.1663717 0.17556086 0.065659426
000060 78 6d c6 bb 9c 22 9a bd f8 ae b5 3c c6 41 10 3d
       -0.00605553 -0.075261325 0.022178158 0.035218976
000070 e2 56 1e be 06 04 49 3e 1a cd 2c be 84 a5 85 3c
       -0.1546283 0.19630441 -0.16875115 0.016314276

model_8/tf.math.add_2/Add/y f4 [1, 32]
000000 1d 11 ac bc 39 02 17 3c 00 0b 2a 3c 33 c0 92 bc
       -0.021004254 0.0092168385 0.010378599 -0.017913913
000010 a5 d4 05 3d 00 97 23 3c 22 3d 66 3b 1b 78 c4 bc
       0.032673497 0.009984732 0.0035131653 -0.023983052
000020 55 21 ca 3b 7b 42 d2 bb 27 15 5d bc c8 f5 92 3b
       0.0061685243 -0.0064166165 -0.013493813 0.004484866
000030 64 45 a3 bc 21 5a 2a 3d f3 6f 61 bc 63 dd 46 bc
       -0.019930549 0.04158986 -0.013759601 -0.012137744
000040 18 4a d1 bc f0 de 44 3c e0 ad 7e bc 4e 32 48 bc
       -0.025548026 0.012016043 -0.015544385 -0.012219025
000050 de ed 0d 3c 7e 7e 3c bc 2b fb 99 bc b0 53 3d 3c
       0.008662669 -0.011504767 -0.018796524 0.011555597
000060 9e 1d 45 3c 05 a6 32 b9 f6 28 05 bc fe ad 8e bc
       0.012030987 -0.0001703725 -0.008127442 -0.01741695
000070 f1 7a 1e 3b ba be 62 3c ca 64 56 bc c9 6e 2a ba
       0.0024182166 0.013839418 -0.013085553 -0.00065014936

model_8/tf.math.add_5/Add/y f4 [1, 32]
000000 92 33 13 3d 42 a0 b2 3d 87 93 ce bc 86 c5 14 bb
       0.035937853 0.08721973 -0.02521683 -0.002270074
000010 f8 9c a4 3d ce aa 5f 3e 3f 3a 63 3e dc 27 67 3e
       0.08037752 0.218425 0.22190188 0.22573799
000020 58 d1 59 3e c1 43 85 3e 0c da 53 3d 25 e9 6b 3e
       0.21271265 0.26028255 0.051721618 0.23038156
000030 3d 24 56 3e 4a 93 94 3b ac 3f 63 3d 51 23 a9 3d
       0.20912261 0.00453416 0.055480644 0.08258689
000040 57 7e 77 3e 05 f0 56 bb e9 09 a2 bb 99 24 31 bd
       0.24169289 -0.0032796871 -0.004945029 -0.043247793
000050 b7 7a 2a 3d 7d 29 5f 3e 99 18 72 3e e8 e1 80 3c
       0.041620936 0.2179317 0.23642196 0.01573272
000060 18 57 8e 3e 86 48 57 3d dc a5 16 3d da 97 36 3d
       0.27800822 0.052559398 0.03677927 0.04457841
000070 80 a8 9f bc 8a 2d 9c 3d 7c 55 14 3d b2 14 a1 3d
       -0.019489527 0.076258734 0.036214337 0.078652754

model_8/tf.math.multiply_10/Mul/y f4 [1, 32]
000000 fa 72 7c 3f 8d 61 80 3f ef 81 81 3f 6c 81 7a 3f
       0.9861294 1.002977 1.0117778 0.9785373
000010 fd 91 77 3f f6 e1 84 3f 7d 7a 80 3f 57 c5 7d 3f
       0.96707135 1.0381458 1.003738 0.9912924
000020 fb de 84 3f f4 10 7d 3f d3 4e 7e 3f b9 7d 81 3f
       1.0380548 0.98853993 0.99339026 1.0116493
000030 45 1d 7c 3f 92 2e 85 3f 75 a2 7e 3f e5 09 7a 3f
       0.9848216 1.0404837 0.9946664 0.9767135
000040 6a 5c 78 3f 02 99 82 3f 9a 8e 7d 3f fb f3 7d 3f
       0.9701601 1.0202944 0.9904572 0.9920041
000050 d8 ec 7a 3f 2d 54 7b 3f 1f 1b 7b 3f fa f6 7e 3f
       0.98017645 0.9817532 0.9808826 0.99595606
000060 95 70 84 3f 4e 3d 7f 3f c7 7e 7d 3f 51 05 7e 3f
       1.0346857 0.9970292 0.9902157 0.9922686
000070 a0 ff 76 3f 85 93 7f 3f 2e 96 76 3f 0b 98 7e 3f
       0.964838 0.9983447 0.96322906 0.9945075

model_8/tf.math.multiply_22/Mul/y f4 [1, 32]
000000 db a6 84 3f 9c 07 8e 3f 01 34 79 3f 0a 3c 80 3f
       1.036342 1.1096072 0.97344977 1.0018322
000010 c0 11 8c 3f 27 ed 9b 3f 55 ab 9c 3f 95 8d 9e 3f
       1.0942917 1.2181748 1.2239786 1.2386957
000020 4c 8d 98 3f 6d 2e aa 3f ff 32 86 3f 38 90 9d 3f
       1.191812 1.3295418 1.0484313 1.2309637
000030 2c 11 97 3f 2a f2 81 3f b1 48 85 3f 1a 4b 8e 3f
       1.1802115 1.0152028 1.0412809 1.1116669
000040 6c 8f a1 3f 54 39 81 3f c4 96 7e 3f 8e b3 72 3f
       1.2621894 1.009562 0.994488 0.9480523
000050 b5 b0 84 3f 39 18 9b 3f 4d f8 a0 3f dd 16 80 3f
       1.0366427 1.2116767 1.2575775 1.0006977
000060 86 fa ae 3f e7 6e 8b 3f 78 a6 88 3f cc 02 85 3f
       1.3670204 1.089322 1.0675802 1.0391479
000070 f7 22 7d 3f a0 32 8c 3f 4a af 8a 3f b6 de 8b 3f
       0.9888148 1.095295 1.0834744 1.0927341
