my_custom_model/activate_assistant_increase_false_activation_penalty.onnx (onnx, 206292 bytes, 9 tensors)

layer1.weight f4 [32, 1536]
0.028792392 0.004316005 -0.00694447 -0.015362358 -0.001384017 -0.004742276 -0.019271929 -0.010277244
-0.021828955 0.0014946298 0.01051124 0.0018085947 0.022381298 -0.010650007 0.006965178 0.017225966
-0.03857941 0.01727862 -0.0067060953 0.01289211 -0.022314306 -0.013680559 -0.004396368 0.0050665243
0.010775048 -0.008400356 -0.0031742468 -0.034041315 -0.014452787 0.004149759 -0.00048312126 0.0060591027
0.026036404 -0.015670775 0.035590503 0.002187874 -0.01361024 -0.015058092 0.018894259 0.005403114
0.014735818 -0.03288316 0.017053692 0.0156939 0.012902389 -0.020090098 0.0033473307 -0.026544392
0.014477133 0.012990656 0.029607955 -0.008755529 0.013790088 0.034075793 0.027370468 0.030081097
-0.015184256 -0.010204615 0.0073424624 -0.023021013 -0.016479002 -0.017801674 -0.0031986176 -0.027603216
0.022668613 0.014344024 0.017402146 0.009376795 -0.01515691 0.005510307 -0.04327587 -0.01760852
0.041600846 -0.007400201 3.2689713e-05 0.0031917212 0.013023882 0.044192746 -0.015915534 -0.024228161
0.009322653 0.015767347 0.011606133 -0.0073070796 0.020048551 -0.0065486464 -0.035133228 0.018953418
0.014983326 -0.008861007 0.0014931681 -0.017574979 0.02183078 -0.011260606 0.004181892 0.008806929
-0.007558101 -0.014633447 -0.0033894451 -0.009465685 0.021473682 0.012952018 -0.017874343 -0.005289651
0.01852991 0.0061397087 0.022735141 -0.0039354702 -0.016273057 0.0012030095 0.012284055 -0.02814999
-0.010998728 0.04821103 0.009610794 -0.031422786 -0.0031383054 0.011651429 0.004845903 -0.0144269345
-0.01650054 0.015274195 0.007264358 0.007976599 0.007876879 -0.007998647 0.021441182 0.021188147
0.012977637 -0.015244035 0.034038804 0.03261063 0.014096441 -0.01110835 0.02497249 0.015931798
0.00637911 -0.02766715 0.011466741 0.0060376395 -0.008345883 0.018071802 0.0060489248 -0.018174578
-0.033636816 -0.013062413 0.03119386 0.01651698 -0.0052293777 0.014796905 -0.015216645 -0.0065869964
0.017046088 0.013262827 0.012954584 -0.0060264673 0.0037300354 0.0047526816 0.00943476 -0.00040163205
0.009839138 -0.0009799683 0.05114779 -0.006172875 -0.00881184 -0.005711648 -0.04262182 -0.0012512218
0.035631515 -0.018162865 -0.009413727 -0.009565385 -0.00096758164 0.05936113 0.015233612 -0.024860874
-0.0051372335 0.00041368994 -0.01766736 0.0012835513 -0.0124507565 0.0015924423 -0.015893921 -0.02223901
0.036309987 0.01914951 0.014702852 -0.013534486 0.01764869 0.021444669 0.0028697173 0.0038942527
-0.0021121053 0.00071713864 -0.014332196 -0.03380376 0.010838958 -0.016229354 -0.02151069 -0.006429858
0.016957138 0.019152839 0.02002215 -0.010745302 -0.01343097 0.02557864 -0.009337219 0.013554646
-0.039986618 0.047480743 0.00018504576 0.0110746715 -0.009428713 -0.0014933988 -0.002792649 0.012967432
0.024943713 0.018234171 0.012461914 -0.010518793 0.021256357 0.0012604916 0.011116058 0.020256413
0.008664994 0.03113058 -0.0017062038 0.0073941066 -0.013421397 0.011376831 -0.0034051235 -0.023126177
0.012417968 0.0015656266 0.015010985 -0.012547038 -0.014022643 -0.0051294714 0.0019192975 0.019537415
-0.00971375 0.019331506 -0.004566639 0.030161265 0.014403499 -2.3568671e-05 -0.019760896 0.012771718
0.012453906 -0.00042447133 -0.0012388106 -0.022869855 0.0014600456 -0.0016789425 0.02564451 -0.03177326
00000000: 06de eb3c 466d 8d3b 708e e3bb 66b2 7bbc
00000010: e867 b5ba 1865 9bbb 2ae0 9dbc e361 28bc
00000020: a3d2 b2bc 74e7 c33a 5637 2c3c 5e0e ed3a
00000030: fc58 b73c 5e7d 2ebc 263c e43b 781d 8d3c
00000040: 7205 1ebd e48b 8d3c cebe dbbb 6e39 533c
00000050: 7ecc b6bc 6c24 60bc 680f 90bb 1605 a63b
00000060: d489 303c a6a1 09bc 0607 50bb e86e 0bbd
00000070: 62cb 6cbc b4fa 873b 704b fdb9 708b c63b
00000080: 4c4a d53c ff5f 80bc 59c7 113d 6f62 0f3b
00000090: 7cfd 5ebc 37b6 76bc 22c8 9a3c 9b0c b13b
000000a0: 806e 713c 7eb0 06bd 2fb4 8b3c 7e90 803c
000000b0: 8b64 533c fd93 a4bc e45e 5b3b a073 d9bc
000000c0: 7f31 6d3c c3d6 543c 628c f23c 5a73 0fbc
000000d0: d2ef 613c 0f93 0b3d 0838 e03c a26c f63c
000000e0: 63c7 78bc 4231 27bc 0a99 f03b 9096 bcbc
000000f0: f9fe 86bc d1d4 91bc e69f 51bb 2420 e2bc
00000100: 87b3 b93c 3203 6b3c f28e 8e3c 21a1 193c
00000110: b054 78bc ce8f b43b 0a42 31bd be3f 90bc
00000120: a665 2a3d 637d f2bb 501c 0938 322c 513b
00000130: 1f62 553c 7403 353d 4b61 82bc 237a c6bc
00000140: 0abe 183c 862a 813c a627 3e3c 3a70 efbb
00000150: dc3c a43c 0796 d6bb dce7 0fbd 3344 9b3c
00000160: a07c 753c c22d 11bc 68b6 c33a 67f9 8fbc
00000170: 77d6 b23c 687e 38bc 4108 893b f04a 103c
00000180: f2a9 f7bb 20c1 6fbc 7421 5ebb f615 1bbc
00000190: 93e9 af3c b334 543c 376d 92bc cf54 adbb
000001a0: 0acc 973c 9c2f c93b 0c3f ba3c 1ef5 80bb
000001b0: 134f 85bc 4dae 9d3a 1043 493c cf9a e6bc
000001c0: 0234 34bc ee78 453d 9776 1d3c 2eb5 00bd
000001d0: 07ac 4dbb a3e5 3e3c 61ca 9e3b f35e 6cbc
000001e0: 242c 87bc 9e40 7a3c da09 ee3b 48b0 023c
000001f0: 060e 013c c20c 03bc 6ba5 af3c c492 ad3c
00000200: 28a0 543c 1ec2 79bc 466c 0b3d b992 053d
00000210: c2f4 663c ccff 35bc 1b93 cc3c 6783 823c
00000220: da07 d13b 38a6 e2bc ffde 3b3c 64d7 c53b
00000230: 2cbd 08bc 510b 943c 0f36 c63b dae2 94bc
00000240: c2c6 09bd bb03 56bc 448a ff3c 9e4e 873c
00000250: 335b abbb b86e 723c 3c4f 79bc bbd7 d7bb
00000260: 3da4 8b3c 544c 593c 773f 543c ac79 c5bb
00000270: 9c73 743b 62bc 9b3b 4094 1a3c 2492 d2b9
00000280: 5634 213c 4872 80ba 5880 513d d445 cabb
00000290: 895f 10bc c728 bbbb 3894 2ebd 0900 a4ba
000002a0: 5af2 113d 4aca 94bc 083c 1abc 22b8 1cbc
000002b0: 4ea5 7dba a824 733d 6696 793c 08a9 cbbc
000002c0: 3d56 a8bb 86e4 d839 24bb 90bc d63c a83a
000002d0: 42fe 4bbc 7fb9 d03a f833 82bc 962e b6bc
000002e0: c8b9 143d 6fdf 9c3c 3be4 703c c0bf 5dbc
000002f0: fc93 903c bbac af3c de11 3c3b b836 7f3b
00000300: 3f6b 0abb 5cfe 3b3a 96d1 6abc d075 0abd
00000310: e395 313c 6cf3 84bc 3037 b0bc 8fb1 d2bb
00000320: b2e9 8a3c 6ae6 9c3c 7e05 a43c 100d 30bc
00000330: 920d 5cbc 4c8a d13c 23fb 18bc 4e14 5e3c
00000340: 02c9 23bd 2b7b 423d d808 4239 8a72 353c
00000350: e37a 1abc 26be c3ba e004 37bb 5a75 543c
00000360: c256 cc3c d45f 953c 0e2d 4c3c 0457 2cbc
00000370: d021 ae3c 1437 a53a 2020 363c c7f0 a53c
00000380: 9ef7 0d3c 8f05 ff3c b3a2 dfba 434a f23b
00000390: 6be5 5bbc e365 3a3c 7e28 5fbb 1c73 bdbc
000003a0: bc74 4b3c b635 cd3a a2f0 753c 1792 4dbc
000003b0: 3abf 65bc 2015 a8bb f090 fb3a ee0c a03c
000003c0: 6c26 1fbc 1b5d 9e3c bfa3 95bb c214 f73c
000003d0: a7fc 6b3c 56b5 c5b7 9ae1 a1bc 7840 513c
000003e0: 780b 4c3c 948b deb9 965f a2ba 9059 bbbc
000003f0: 005f bf3a f60f dcba 6f14 d23c ae24 02bd

layer1.bias f4 [32]
-0.023635607 0.025759876 0.0039501972 -0.0031226452 0.016641628 -0.0168799 -0.019963555 0.017575601
0.018768907 0.0003254125 0.018132238 -0.0025358505 0.004138885 0.0064774314 0.004166988 -0.028330972
-0.024094692 -0.011140655 -0.0046711853 -0.023690756 0.008162591 -0.0086966455 0.015078977 0.008054487
0.021044627 -0.0020447914 -0.021589369 -0.0067364555 0.0022032082 0.017129596 -0.004479413 0.018102948
00000000: 769f c1bc 6006 d33c a870 813b 4ba5 4cbb
00000010: 0654 883c b747 8abc 9c8a a3bc b5fa 8f3c
00000020: 40c1 993c 209c aa39 0f8a 943c 8330 26bb
00000030: 7c9f 873b a240 d43b 3b8b 883b 5b16 e8bc
00000040: 3b62 c5bc 4b87 36bc be10 99bb 1e13 c2bc
00000050: 63bc 053c 607c 0ebc d00d 773c f8f6 033c
00000060: c865 ac3c e801 06bb 30dc b0bc 7cbd dcbb
00000070: b363 103b 5e53 8c3c 0ac8 92bb a24c 943c

layernorm1.weight f4 [32]
1.0195329 1.0043676 0.9981848 0.99338096 1.0124944 0.989396 0.9897226 1.0001945
0.9878823 0.9996428 0.9892165 1.0173469 1.0233245 1.0159789 0.9988946 0.9970555
0.99539804 1.0083733 0.998168 0.9966847 0.99761534 0.987688 0.9967281 0.99801064
0.99746895 1.0156641 0.99712515 0.98467696 1.0004262 0.9959109 0.9975082 0.98834753
00000000: 0e80 823f 1e8f 803f 0a89 7f3f 374e 7e3f
00000010: 6b99 813f 0e49 7d3f 765e 7d3f 6006 803f
00000020: dbe5 7c3f 97e8 7f3f 4b3d 7d3f 6c38 823f
00000030: 4cfc 823f 990b 823f 8eb7 7f3f 073f 7f3f
00000040: 68d2 7e3f 6012 813f f087 7f3f ba26 7f3f
00000050: b863 7f3f 1fd9 7c3f 9329 7f3f a07d 7f3f
00000060: 205a 7f3f 4801 823f 9843 7f3f ca13 7c3f
00000070: f70d 803f 04f4 7e3f b35c 7f3f 5804 7d3f

layernorm1.bias f4 [32]
-0.00819392 0.033612434 -0.0022000247 -0.011014632 0.022614487 0.0026183785 -0.013460418 0.001927935
0.014209978 -0.00038273493 0.008929596 0.03272281 0.0059392443 0.025342092 -0.010690748 -0.016211519
-0.011795228 0.014159119 -0.009703583 -0.0147521375 -0.010311678 0.010520555 -0.013643558 -0.011590371
-0.011029514 0.02512201 -0.010487678 0.0066416967 -0.01650126 0.008612377 0.028677989 0.02088144
00000000: cb3f 06bc 31ad 093d 4a2e 10bb b776 34bc
00000010: 0442 b93c 1a99 2b3b 1689 5cbc c4b2 fc3a
00000020: f8d0 683c d0a9 c8b9 714d 123c 5a08 063d
00000030: fe9d c23b 389a cf3c 3f28 2fbc 05ce 84bc
00000040: c640 41bc a6fb 673c c7fb 1ebc f3b2 71bc
00000050: 50f2 28bc 685e 2c3c 3b89 5fbc 8ae5 3dbc
00000060: 22b5 34bc accc cd3c 83d4 2bbc 97a2 d93b
00000070: a72d 87bc ed1a 0d3c 1aee ea3c 8e0f ab3c

blocks.0.fcn_layer.weight f4 [32, 32]
-0.10420795 -0.005551873 0.15053883 0.14618708 -0.1021574 -0.2061116 0.100695476 0.110485315
0.05476082 0.091919355 0.009498315 0.017854288 -0.09191595 -0.0051543065 0.031807065 0.06240363
-0.05582508 0.11390571 -0.1522192 -0.09649914 0.010688818 0.10300591 -0.122509256 0.07594046
-0.098409966 0.087468386 0.07693905 -0.10691839 0.12314 -0.16577387 0.12437463 0.16831663
0.17114857 -0.04758189 -0.00947707 -0.14540023 -0.1341756 -0.14178585 0.010710219 0.13162412
0.1383239 -0.036603987 0.12264474 -0.015470653 -0.03500592 -0.16418 -0.03203769 0.1473466
-0.06714472 -0.05207786 -0.12133679 -0.15775655 -0.07917382 -0.12427517 0.07828054 0.0449645
0.15361066 0.10115176 0.1198982 -0.029292341 0.014812138 0.011251757 0.14764723 0.04671801
-0.01094356 -0.030934874 0.07171262 -0.04402566 -0.055267494 -0.06359629 0.10468532 -0.074526176
0.17674354 -0.116546415 0.04744525 0.066796094 -0.17211193 -0.088161096 0.12816045 -0.17003183
0.16950117 -0.054582357 0.16980231 0.16836685 -0.16032344 -0.04839097 -0.075206734 -0.022315351
0.028738994 -0.04347826 0.053975195 0.08971318 -0.07460886 -0.07800212 -0.0501876 -0.027058495
0.03926121 -0.014667629 0.027410064 -0.17548344 0.08953071 -0.16727328 0.04401639 -0.07916115
0.045016244 -0.12188112 0.116825044 -0.05799993 0.093751155 -0.11767265 0.12816256 -0.12054082
-0.16582905 -0.16927998 0.11820252 0.008878298 0.06647757 0.06302111 -0.07688469 0.15829444
-0.13997589 -0.045727022 -0.028414737 0.120181605 0.0471488 -0.04184278 -0.000901768 -0.10594116
0.05411164 -0.17186198 0.118798494 0.10030578 -0.009490026 -0.19266847 0.004454648 -0.13467364
0.10262381 0.16606843 -0.019491348 0.12322419 0.06535005 -0.07236673 0.01096298 -0.025589889
-0.12511884 -0.068869136 -0.04149979 0.13189006 -0.07118425 -0.0810667 0.078751326 0.02073333
-0.15833461 -0.14577615 -0.09737024 -0.056584142 0.04811418 -0.03606379 0.06425961 -0.027040763
-0.03653523 -0.011955984 0.024967544 -0.15255576 0.0009392146 -0.1430634 0.15140784 0.17219815
-0.14998141 0.05057489 -0.019058509 0.033542465 0.098274015 0.07491392 -0.0751699 -0.06885961
-0.015206843 -0.15880837 0.08278817 -0.13589922 0.09840902 -0.03559187 0.1523127 0.012597992
0.12436604 -0.034899056 0.06184049 -0.074345246 -0.046199657 -0.04704584 -0.06681408 -0.056549713
0.15113603 -0.08369185 0.16952574 0.17018458 0.012150209 -0.027239546 -0.11557837 -0.010791066
0.11665511 -0.1256242 0.023573667 -0.12722963 -0.052942406 -0.1320468 0.028826406 0.06921083
-0.026900752 0.060191832 0.0034369319 -0.089141384 0.08099803 -0.067866765 -0.13323075 -0.09519713
-0.063617796 -0.11409849 0.04170316 0.023953881 0.007904349 0.046981126 0.022552937 0.1590505
0.19561021 0.039999157 -0.07413415 -0.030702202 -0.048950355 -0.0017531383 0.08292381 -0.046104964
-0.04028848 -0.17245428 -0.087191544 0.028576493 0.07252027 -0.004925828 0.061521724 0.16182715
0.05492161 0.017408738 -0.045653008 0.0837849 -0.014040811 -0.036793593 0.15445872 -0.0012721661
-0.12872444 0.06003678 0.057254996 0.1461289 -0.11222731 0.014892484 -0.15640327 -0.12019865
00000000: fa6a d5bd 7cec b5bb da26 1a3e 11b2 153e
00000010: e637 d1bd eb0e 53be 6e39 ce3d 2046 e23d
00000020: e24c 603d 3740 bc3d d29e 1b3c 2843 923c
00000030: 6e3e bcbd 75e5 a8bb 2048 023d f39a 7f3d
00000040: d7a8 64bd 6647 e93d 5adf 1bbe 57a1 c5bd
00000050: 2720 2f3c c3f4 d23d 22e6 fabd ac86 9b3d
00000060: 2a8b c9bd a022 b33d 3892 9d3d 07f8 dabd
00000070: d330 fc3d a0c0 29be 20b8 fe3d 325b 2c3e
00000080: 9241 2f3e 3ae5 42bd b645 1bbc cce3 14be
00000090: 5465 09be 4f30 11be ea79 2f3c 79c8 063e
000000a0: c8a4 0d3e 10ee 15bd 2a2d fb3d 9f78 7dbc
000000b0: 5e62 0fbd cd1e 28be f439 03bd 07e2 163e
000000c0: 2c83 89bd 984f 55bd 6c7f f8bd ef8a 21be
000000d0: e225 a2bd fb83 febd 8c51 a03d b22c 383d
000000e0: 1d4c 1d3e a728 cf3d 308d f53d 7ef6 efbc
000000f0: 9cae 723c 4a59 383c d630 173e 625b 3f3d
00000100: 9e4c 33bc 226b fdbc 11de 923d 4054 34bd
00000110: 2b60 62bd c63e 82bd 4265 d63d 2ea1 98bd
00000120: 42fc 343e e3af eebd f355 423d 64cc 883d
00000130: 1c3e 30be ce8d b4bd 7e3c 033e d31c 2ebe
00000140: b791 2d3e c091 5fbd a8e0 2d3e 5c68 2c3e
00000150: d42b 24be 9c35 46bd fd05 9abd afce b6bc
00000160: 0a6e eb3c 4316 32bd 1815 5d3d 8bbb b73d
00000170: 88cc 98bd 93bf 9fbd 8391 4dbd c7a9 ddbc
00000180: 5dd0 203d 7f50 70bc 128b e03c eeb1 33be
00000190: e05b b73d b049 2bbe 884a 343d 3e1f a2bd
000001a0: f462 383d cf9c f9bd f841 ef3d 5691 6dbd
000001b0: 9b00 c03d 5cfe f0bd 0c3d 033e 1bde f6bd
000001c0: 17cf 29be bb57 2dbe 2a14 f23d 4876 113c
000001d0: 6425 883d 3611 813d b875 9dbd f017 223e
000001e0: d755 0fbe 424c 3bbd 06c6 e8bc c621 f63d
000001f0: 1a1f 413d 5663 2bbd a064 6cba aef7 d8bd
00000200: 2ba4 5d3d 96fc 2fbe a04c f33d 1e6d cd3d
00000210: 0e7c 1bbc e24a 45be 4cf8 913b e3e7 09be
00000220: 6f2c d23d d80d 2a3e 52ac 9fbc f75c fc3d
00000230: 3fd6 853d 0235 94bd 129e 333c e3a1 d1bc
00000240: 271f 00be 430b 8dbd affb 29bd 300e 073e
00000250: 0cc9 91bd 4c06 a6bd 6048 a13d f2d8 a93c
00000260: 7822 22be 5846 15be 0c6a c7bd c6c4 67bd
00000270: 6013 453d a0b7 13bd 8b9a 833d 9784 ddbc
00000280: f7a5 15bd 08e3 43bc bc88 cc3c 9437 1cbe
00000290: a035 763a 367f 12be a80a 1b3e b654 303e
000002a0: ba94 19be 9e27 4f3d 9720 9cbc d363 093d
000002b0: e343 c93d 786c 993d adf2 99bd 4406 8dbd
000002c0: 1f26 79bc a99e 22be d88c a93d 2a29 0bbe
000002d0: ab8a c93d c8c8 11bd dcf7 1b3e cf67 4e3c
000002e0: 9fb3 fe3d 50f2 0ebd 744c 7d3d 5242 98bd
000002f0: da3b 3dbd 24b3 40bd d2d5 88bd aca0 67bd
00000300: 67c3 1a3e a266 abbd 2898 2d3e de44 2e3e
00000310: ac11 473c 7825 dfbc 5ab4 ecbd 03cd 30bc
00000320: e0e8 ee3d a1a3 00be 901d c13c 7c48 02be
00000330: 23da 58bd 4737 07be 5b25 ec3c 68be 8d3d
00000340: f75e dcbc b68b 763d 263e 613b c28f b6bd
00000350: 4ce2 a53d bbfd 8abd a46d 08be b7f6 c2bd
00000360: 0c4a 82bd 78ac e9bd efd0 2a3d ee3a c43c
00000370: 3e81 013c 486f 403d f0c0 b83c 22de 223e
00000380: 0b4e 483e 28d6 233d a5d3 97bd 2f83 fbbc
00000390: 2b80 48bd 8fc9 e5ba f5d3 a93d 8fd8 3cbd
000003a0: 8905 25bd db97 30be 7b91 b2bd 4019 ea3c
000003b0: 8285 943d d768 a1bb 34fe 7b3d 04b6 253e
000003c0: 7bf5 603d c59c 8e3c a6fe 3abd 6b97 ab3d
000003d0: 6e0b 66bc e1b4 16bd 6d2a 1e3e d0be a6ba
000003e0: 57d0 03be 20e9 753d 3784 6a3d d0a2 153e
000003f0: 6fd7 e5bd 9bff 733c 2e28 20be b62a f6bd

blocks.0.fcn_layer.bias f4 [32]
-0.035497073 0.12981583 0.06370354 -0.05315327 0.12035345 0.12798119 0.012503577 0.009501584
-0.099606484 -0.17070001 0.04676918 -0.111685984 -0.054211155 0.029321816 -0.094393365 -0.07627458
-0.10535788 0.097927794 -0.11494677 -0.10081977 0.17459117 -0.12322509 0.07770272 -0.09752554
0.08875432 -0.05025607 0.04219873 -0.114057064 -0.012308768 0.032775156 -0.13559616 -0.06941475
00000000: 6165 11bd 71ee 043e 0077 823d 3eb7 59bd
00000010: df7b f63d 800d 033e cedb 4c3c 88ac 1b3c
00000020: 7cfe cbbd fccb 2ebe 0a91 3f3d 9fbb e4bd
00000030: 840c 5ebd 4e34 f03c 4f51 c1bd d935 9cbd
00000040: dfc5 d7bd 5e8e c83d 3669 ebbd 987a cebd
00000050: 07c8 323e 705d fcbd 9b22 9f3d 78bb c7bd
00000060: d3c4 b53d 4fd9 4dbd 93d8 2c3d c096 e9bd
00000070: b7aa 49bc 3e3f 063d b8d9 0abe 5229 8ebd

blocks.0.layer_norm.weight f4 [32]
1.0695161 1.0074105 0.99753374 1.0011249 1.0013934 0.9996471 0.9973602 0.9979826
0.99726045 0.9950125 1.262286 1.001857 1.0009435 1.3310492 0.9974499 1.1935134
1.015168 1.2483795 1.2155988 1.3432078 1.2424681 0.98710746 1.0003881 0.9962389
1.2206213 0.99800223 1.0572652 1.2611089 1.0379355 1.2373426 0.9895727 1.0096335
00000000: e7e5 883f d4f2 803f 5f5e 7f3f dc24 803f
00000010: a92d 803f dfe8 7f3f 0053 7f3f ca7b 7f3f
00000020: 764c 7f3f 24b9 7e3f 9692 a13f da3c 803f
00000030: eb1e 803f d25f aa3f e058 7f3f 0cc5 983f
00000040: 06f1 813f e6ca 9f3f be98 9b3f 3cee ab3f
00000050: 3209 9f3f 13b3 7c3f b80c 803f 8309 7f3f
00000060: 523d 9c3f 137d 7f3f 7754 873f 046c a13f
00000070: 12db 843f 3e61 9e3f a354 7d3f ac3b 813f

blocks.0.layer_norm.bias f4 [32]
0.07736678 0.0057060197 -0.005355652 0.0028329145 0.0011301622 -0.00037941217 -0.0008047131 -0.004430191
-0.006293505 -0.008221563 0.2462376 -0.0013417116 0.0039795227 0.27878076 -0.003222113 0.22714564
0.017535556 0.23982397 0.22566405 0.2795031 0.24102561 -0.0092668235 0.0006449816 -0.005892013
0.23151752 -0.0057238806 0.023872346 0.24574105 0.024148613 0.23287997 -0.02561206 -0.0014639621
00000000: 7972 9e3d 90f9 ba3b 777e afbb 6ba8 393b
00000010: f321 943a d7eb c6b9 62f3 52ba 232b 91bb
00000020: bf39 cebb bcb3 06bc b625 7c3e 5fdc afba
00000030: a866 823b 5abc 8e3e 162a 53bb de98 683e
00000040: baa6 8f3c 6a94 753e 7a14 673e 081b 8f3e
00000050: 6bcf 763e e0d3 17bc fc13 293a ca11 c1bb
00000060: ee12 6d3e 648f bbbb f08f c33c 8ba3 7b3e
00000070: 50d3 c53c 1678 6e3e 62d0 d1bc 6be2 bfba

last_layer.weight f4 [1, 32]
0.048879143 0.15902275 -0.027020773 -0.0812329 -0.016719345 0.13178974 -0.060632914 0.00039198063
0.13713863 0.15475383 -0.3295663 0.16218847 0.043446176 -0.31129044 0.07881647 -0.31307048
0.022437356 -0.33562884 -0.36772412 -0.33851224 -0.32351577 -0.027816694 -0.03812916 -0.0028853815
-0.33266413 0.088441655 0.071589045 -0.33982277 0.19245373 -0.35787258 0.02634119 0.14097665
00000000: 7f35 483d dcd6 223e ab5a ddbc 6f5d a6bd
00000010: 02f7 88bc e4f3 063e 385a 78bd c082 cd39
00000020: 126e 0c3e ca77 1e3e eabc a8be bc14 263e
00000030: 9ef4 313d 7661 9fbe 886a a13d c64a a0be
00000040: 8cce b73c 8bd7 abbe 5646 bcbe 7a51 adbe
00000050: dca3 a5be d6df e3bc 522d 1cbd ab18 3dbb
00000060: f452 aabe e620 b53d 479d 923d 40fd adbe
00000070: 9712 453e 133b b7be 7bc9 d73c 2f5c 103e
