my_custom_model/activate_assistant_float16.tflite (tflite, 107468 bytes, 9 tensors)

arith.constant2 f2 [1, 32]
00000000: 293c 9c3c ce3b 8b3c 2f3c 3a3d 703c 2b3d
00000010: 5b3c 133c 2e3d 8a3c 2c3d b63d a73c c03c
00000020: 663c 3e3c 353c 163c 213d 6a3c 483d 613c
00000030: 453c 0c3d 913c 793c a53b 443d a93b 813c
1.04 1.152 0.9756 1.136 1.046 1.307 1.109 1.292
1.089 1.019 1.295 1.135 1.293 1.428 1.163 1.1875
1.1 1.061 1.052 1.021 1.282 1.104 1.32 1.095
1.067 1.262 1.142 1.118 0.9556 1.316 0.9575 1.126

arith.constant3 f2 [1, 32]
00000000: 033c bf3b e33b f33b 333c 153c 103c fc3b
00000010: db3b 273c e73b a23c 003c 0d3c 063c 193c
00000020: ee3b 193c 023c df3b d03b 183c 0b3c df3b
00000030: 153c 073c 0b3c 783b 1c3c fd3b f63b 513c
1.003 0.9683 0.986 0.9937 1.05 1.0205 1.016 0.998
0.982 1.038 0.988 1.158 1.0 1.013 1.006 1.024
0.991 1.024 1.002 0.984 0.9766 1.023 1.011 0.984
1.0205 1.007 1.011 0.9336 1.027 0.9985 0.995 1.079

arith.constant4 f2 [1, 32]
00000000: 822b 7030 7aa4 252f da2b 8b34 662c 7a34
00000010: 392d 7024 9934 5a29 9034 5935 332d da2e
00000020: f62a 5828 2d2d a0a6 7634 612c 8e34 0c2b
00000030: 432c 5a34 be2c 6b2e 81a9 9d34 d5aa bd2c
0.05865 0.1387 -0.01749 0.11163 0.06134 0.284 0.0687 0.2798
0.0816 0.01733 0.2874 0.0418 0.2852 0.3342 0.08124 0.10706
0.05438 0.03394 0.0809 -0.02588 0.2788 0.0684 0.2847 0.05505
0.0666 0.272 0.0741 0.1003 -0.043 0.2883 -0.05338 0.07404

arith.constant5 f2 [1, 32]
00000000: 2023 4da4 d1a4 53aa 9322 f326 9e1e 62a3
00000010: ee22 9825 d99f a42f e120 7824 3e26 6f22
00000020: 1e22 2da0 ed1b 9d9a e324 131d 1625 dd1c
00000030: 7228 fd20 a697 0f9c 6029 349a 4ba3 312d
0.013916 -0.0168 -0.01881 -0.0494 0.01284 0.02715 0.006462 -0.01442
0.013535 0.02185 -0.007664 0.1194 0.00953 0.01746 0.02438 0.012566
0.01195 -0.008156 0.00387 -0.00323 0.01909 0.004955 0.01987 0.00475
0.03473 0.00974 -0.001867 -0.003963 0.042 -0.003029 -0.014244 0.0811

arith.constant8 f2 [32]
00000000: 4924 602d 062f 9aad 1431 d62f 892e 7827
00000010: a4a6 2dad 622a 7fb0 8424 dfa8 6330 27b0
00000020: 162c 9123 4f30 72af adaf 1431 da2c f5a8
00000030: d7ab 85b1 2aab 0c2d 972d bb2b 61b0 3c32
0.01674 0.084 0.10974 -0.0875 0.1587 0.12244 0.1021 0.02917
-0.02594 -0.0809 0.04987 -0.1405 0.01764 -0.03806 0.1371 -0.1298
0.06384 0.01478 0.1346 -0.11633 -0.11993 0.1587 0.0758 -0.03873
-0.06125 -0.1725 -0.05597 0.07886 0.08734 0.0604 -0.1368 0.1948

arith.constant9 f2 [32]
00000000: 0921 2da6 0ca4 eda5 13a4 04a0 1f24 1da5
00000010: efa1 3220 0e1a 88a4 5725 c910 ec18 159a
00000020: 0c23 bd24 c794 b322 2525 ca21 4325 aea4
00000030: b5a5 e8a2 f89e 1424 79a4 1422 37a7 cea0
0.009834 -0.02412 -0.01581 -0.02315 -0.01591 -0.00784 0.0161 -0.01997
-0.01159 0.008194 0.002956 -0.0177 0.02086 0.000584 0.002403 -0.00297
0.01376 0.01851 -0.001166 0.013084 0.0201 0.01131 0.02055 -0.01828
-0.0223 -0.01349 -0.006805 0.01593 -0.01747 0.01187 -0.02818 -0.009384

arith.constant10 f2 [32, 1536]
00000000: 24a5 2820 ec18 3128 10a0 b09f cba5 7d0f
00000010: 6122 d5a5 a8a3 11a1 b59f 76a3 ab19 03a8
00000020: 8ea9 aaa9 9f27 0e28 e128 0ca5 1423 0724
00000030: 18a9 f7a4 369d 98a6 ee24 3728 1ca8 7da1
00000040: 5ca3 1518 3d8c d4a0 2428 96a4 fd28 e225
00000050: 3c20 dd9b dd9f 9b9c 1ea3 84a2 ef9e 0c22
00000060: 1d27 3d9c 1aa6 9b8f 6722 34a5 0f1c b722
00000070: 8220 3890 881c ef9b 42a7 b624 68a7 6e99
00000080: b69c 8724 b0a2 6d18 1d25 9192 9524 8121
00000090: 11a0 9a21 5ea3 9ba5 7d24 9520 a6a0 8d25
000000a0: 0389 f29d ef27 77a8 7f92 001e 7c21 3c24
000000b0: 0fa6 4d26 4b20 7e0e bba5 09a0 918e 4fa1
000000c0: 19a3 a720 341a 1f29 6ca2 f71f 2023 6ba5
000000d0: 061a 4a26 bda4 701b 5420 381c 2525 0fa7
000000e0: 8ea1 dea6 9ca6 c622 5728 1ea7 da94 f217
000000f0: 73a6 2da1 cea1 ada6 2a24 6229 981f b4a3
00000100: 02a5 1c22 5f24 31a4 88a1 4b27 159d 72a2
00000110: f024 301a 8321 04a8 ed1d d69f 8ba6 fe99
00000120: de22 4999 e2a6 029f 6a24 baa0 6ba2 e4a5
00000130: 2223 1a26 5ca6 e223 4627 ae28 a725 741f
00000140: ba9f 5f1c f09b f21c 49a5 829a 1729 b91d
00000150: 82a6 2425 5aa3 dd11 7527 37a1 e424 3b1c
00000160: 2c1f 89a5 9626 18a5 37a5 d722 d028 bb22
00000170: c621 1493 79a3 9124 1424 bc25 6c9d c3a2
00000180: c121 8da1 8d9c 142b a520 5fa3 74a2 2b99
00000190: bda0 cea0 d2a4 0b25 c0a0 f99d cc96 5b1b
000001a0: faa0 68a7 25a7 01a2 b6a3 9f25 25a3 65a5
000001b0: 8824 0920 a8a6 779a 9d25 c91f dba2 c921
000001c0: aa98 fb22 7d21 b4a1 3b9f ef21 2f23 f899
000001d0: 6da4 b122 a99b 3a1a 7824 9ea5 5791 9a98
000001e0: ad21 48a4 54a6 9125 50a0 b994 a821 8aa4
000001f0: ed21 dc19 591f e89c 4b1c 5920 2291 fc20
-0.02008 0.00812 0.002403 0.03275 -0.007935 -0.007507 -0.02263 0.000457
0.01246 -0.02278 -0.01495 -0.009895 -0.007526 -0.01457 0.002768 -0.03134
-0.0434 -0.04425 0.02977 0.03168 0.03812 -0.01971 0.013824 0.01573
-0.0398 -0.0194 -0.00509 -0.02576 0.01926 0.03293 -0.0321 -0.01072
-0.01437 0.001993 -0.0002587 -0.00943 0.03235 -0.01791 0.03897 0.02298
0.00827 -0.00384 -0.00768 -0.004498 -0.0139 -0.012726 -0.00677 0.01181
0.02779 -0.00414 -0.02383 -0.0004642 0.012505 -0.02032 0.003963 0.013115
0.008804 -0.000515 0.004425 -0.003874 -0.02835 0.0184 -0.02893 -0.002651
-0.0046 0.01768 -0.01306 0.002161 0.01997 -0.0008016 0.0179 0.01075
-0.00794 0.01094 -0.01439 -0.0219 0.01753 0.00895 -0.00908 0.02168
-0.000153 -0.005806 0.03099 -0.03488 -0.000793 0.00586 0.01071 0.01654
-0.02367 0.02461 0.008385 0.0003963 -0.02238 -0.00788 -0.0004008 -0.01037
-0.01386 0.00909 0.003029 0.04 -0.01254 0.00778 0.013916 -0.02116
0.002941 0.02457 -0.01851 0.003632 0.00845 0.00412 0.0201 -0.02757
-0.01085 -0.02682 -0.02582 0.01323 0.0339 -0.0278 -0.001184 0.00194
-0.02519 -0.01011 -0.01134 -0.02608 0.01627 0.04205 0.007416 -0.015045
-0.01956 0.01193 0.01707 -0.01637 -0.0108 0.02849 -0.004963 -0.01259
0.01929 0.003021 0.010765 -0.03137 0.005787 -0.007652 -0.02556 -0.002926
0.01341 -0.00258 -0.02689 -0.006844 0.01724 -0.00923 -0.012535 -0.02301
0.01393 0.02383 -0.02484 0.015396 0.02841 0.03656 0.02208 0.00728
-0.007545 0.00427 -0.003876 0.00483 -0.02065 -0.003178 0.03976 0.00559
-0.02542 0.02008 -0.01436 0.0007157 0.02913 -0.010185 0.0191 0.00413
0.007004 -0.02162 0.02573 -0.0199 -0.02037 0.01336 0.0376 0.013145
0.01128 -0.000864 -0.014595 0.01784 0.01593 0.0224 -0.005295 -0.01321
0.01124 -0.01084 -0.004444 0.0553 0.00907 -0.0144 -0.0126 -0.002523
-0.009254 -0.009384 -0.01883 0.0197 -0.00928 -0.005833 -0.001659 0.003592
-0.00972 -0.02893 -0.02791 -0.01173 -0.01506 0.02196 -0.013954 -0.02107
0.0177 0.00788 -0.026 -0.003157 0.02193 0.007603 -0.01339 0.0113
-0.002277 0.01363 0.01072 -0.01114 -0.00706 0.01159 0.01403 -0.002914
-0.01729 0.01307 -0.00374 0.00304 0.01746 -0.02194 -0.000652 -0.002247
0.011086 -0.01672 -0.02472 0.02174 -0.00842 -0.001153 0.01105 -0.01773
0.01157 0.002861 0.007175 -0.00479 0.004192 0.00849 -0.0006266 0.009735

arith.constant11 f2 [32, 32]
00000000: c6ae 532d 36ae 99a9 09a8 30b0 e22e 6730
00000010: 382c f99e 8db0 fbaf 77a6 e431 5cac 5bb0
00000020: 1ab1 01a0 eea5 1da6 5731 372e f8a7 51aa
00000030: 1931 0a30 2c30 922c 2ca8 c8ae 66a7 02b4
00000040: fcac b723 8131 a6ad dbac d32b d0b1 962a
00000050: ca2f d330 43aa 7530 b02c 12b0 95af f6b0
00000060: 4431 6d33 e92c 6d28 1122 f331 27ac 0bac
00000070: c7ad cda5 4b31 c4a8 1631 41a7 84b1 f4a7
00000080: f228 76a0 f726 3bb1 16b1 6eb0 1930 38ab
00000090: 71a8 abab 6ea5 5aaa 56ae 3f2f d9ae a3a5
000000a0: 5eb0 efad ccab 69ad 76aa 2a28 a12f 8e2c
000000b0: 602f bc2d 57a8 e22b 6aad e52f 2331 1dac
000000c0: 719e deac 6530 5db0 c1b2 102f 342d b0a0
000000d0: 85b0 31a6 5bb1 b525 adad db30 0a2b 18ad
000000e0: b52e 8d2d 5aaa 3e30 ab30 0130 852a d930
000000f0: 312d 64ac 95a9 3225 5d2d 94a9 76a5 2730
00000100: bfaf 2e30 bd29 912d e1b0 18b2 c41f 982f
00000110: 302c 2d30 faa8 1bb4 87af a12f c8b1 6a30
00000120: d7ac 3ba8 fba6 a4b0 9b24 8831 39a8 77a4
00000130: dda1 fdaf 142d c0aa a72e f52a ada4 5c26
00000140: dcb0 8ca9 332e d731 6232 d5a4 c130 e2ad
00000150: 3caa 69ad 392d c2ae c127 0dab db26 91ac
00000160: 6928 1aad 23b2 dda0 f12d 1baf 54a2 6031
00000170: c52d 40b0 0130 e528 c72c 1ca9 4e30 d7a4
00000180: ef21 7c30 f5af f32c 4fb0 de2b caaa 912b
00000190: 7530 f79e c4ac d1b0 7caf 1fac e1a5 7db1
000001a0: 7daa 9ca9 8923 4730 48a5 f231 6e30 1bb0
000001b0: 2e32 672f 812c ce26 c431 c1aa 3bae 4731
000001c0: 052d 322c 11ac 8d2d b933 8b2e d49b 13ac
000001d0: 0daf a030 932b d7a6 eaa9 e923 3db0 382d
000001e0: 30ac d8b1 3f2d 6c9d 69aa 6a28 67a7 7231
000001f0: 04ad 2daa 01af 6024 0ba7 a6aa 41ad 8ab2
-0.10583 0.0832 -0.09705 -0.04373 -0.03152 -0.1309 0.10754 0.1376
0.0659 -0.00681 -0.1422 -0.1247 -0.02525 0.1841 -0.0681 -0.1361
-0.1594 -0.00782 -0.02316 -0.02388 0.1669 0.0971 -0.03113 -0.04935
0.1593 0.1262 0.1304 0.0714 -0.0326 -0.10596 -0.0289 -0.2505
-0.0779 0.01507 0.172 -0.08826 -0.07587 0.06113 -0.1816 0.05145
0.1217 0.1508 -0.04892 0.1393 0.07324 -0.1272 -0.11847 -0.155
0.1646 0.232 0.0767 0.03458 0.01185 0.1859 -0.0649 -0.0632
-0.0903 -0.02266 0.1654 -0.03723 0.1589 -0.02834 -0.1724 -0.03107
0.03864 -0.00871 0.0272 -0.1635 -0.1589 -0.1384 0.128 -0.0564
-0.0347 -0.0599 -0.02121 -0.04962 -0.099 0.1132 -0.107 -0.02202
-0.1365 -0.0927 -0.0609 -0.08453 -0.05048 0.03253 0.1192 0.07117
0.11523 0.0896 -0.0339 0.06158 -0.0846 0.12335 0.1605 -0.0643
-0.00629 -0.07605 0.1373 -0.1364 -0.211 0.11035 0.0813 -0.009155
-0.1412 -0.02419 -0.1674 0.0223 -0.0887 0.1517 0.055 -0.0796
0.1048 0.08673 -0.04962 0.1326 0.1459 0.1251 0.05093 0.1515
0.0811 -0.0686 -0.0436 0.0203 0.0838 -0.04358 -0.02133 0.1298
-0.12103 0.1306 0.04483 0.087 -0.1525 -0.1904 0.007584 0.11865
0.0654 0.1305 -0.03888 -0.2566 -0.1176 0.1192 -0.1807 0.138
-0.0756 -0.03305 -0.02727 -0.145 0.01799 0.1729 -0.033 -0.01744
-0.01145 -0.1248 0.07935 -0.05273 0.10394 0.05435 -0.01826 0.02484
-0.1519 -0.04333 0.09686 0.1825 0.1995 -0.01888 0.1486 -0.0919
-0.0487 -0.08453 0.0816 -0.1056 0.03029 -0.05508 0.02678 -0.07135
0.03445 -0.0797 -0.1918 -0.0095 0.09283 -0.111 -0.01236 0.168
0.09015 -0.1328 0.1251 0.03824 0.07465 -0.03992 0.1345 -0.0189
0.01159 0.1401 -0.1243 0.07733 -0.1346 0.06146 -0.05304 0.0591
0.1393 -0.0068 -0.07446 -0.1505 -0.11694 -0.0644 -0.02296 -0.1715
-0.0507 -0.04382 0.01472 0.1337 -0.02063 0.1858 0.1384 -0.1283
0.1931 0.11566 0.0704 0.02658 0.1802 -0.05276 -0.09735 0.1649
0.0784 0.06555 -0.06354 0.08673 0.2413 0.10223 -0.003822 -0.06366
-0.11017 0.1445 0.05917 -0.02672 -0.0462 0.01545 -0.1324 0.08154
-0.0654 -0.1826 0.082 -0.005295 -0.05008 0.0345 -0.02892 0.1702
-0.07837 -0.04825 -0.10944 0.01709 -0.02751 -0.05194 -0.0821 -0.2043

arith.constant12 f2 [1, 32]
00000000: ee27 2a31 71a9 f530 8229 76b5 2133 82b5
00000010: ef31 f828 a3b5 3e34 74b5 eab5 dd31 4c30
00000020: 672f da2d 6bb0 cb2b bdb5 162e a2b5 e132
00000030: 9a2c c3b5 e134 292f 3813 93b5 f7ab c433
0.03098 0.1614 -0.0425 0.1549 0.04303 -0.3413 0.2228 -0.3442
0.1854 0.03882 -0.3523 0.2651 -0.3408 -0.3696 0.1832 0.1343
0.11566 0.09143 -0.1381 0.06088 -0.3586 0.0951 -0.352 0.215
0.0719 -0.36 0.305 0.1119 0.000881 -0.3484 -0.06223 0.2427
