my_custom_model/activate_assistant_more_number_of_examples.onnx (onnx, 206292 bytes, 9 tensors)

layer1.weight f4 [32, 1536]
0	0xba92745f	-0.0011173597
1	0xbbdb8c46	-0.0067000715
2	0x3bc12b35	0.0058950433
3	0x3ce46f46	0.02788509
4	0xbb8d7380	-0.004316747
5	0x3c830788	0.015994802
6	0xbbfc66c8	-0.007702682
7	0xbb937e5e	-0.004501148
8	0x3c323870	0.010877714
9	0x3c0ccc89	0.008593687
10	0xbc9e2e76	-0.019309264
11	0x3ad3b5aa	0.0016152163
12	0x3c86ee3e	0.016471025
13	0xbbeaf696	-0.0071705086
14	0x3c55661c	0.013024833
15	0x3c9381bc	0.018006198
16	0x3b83a3c5	0.0040173256
17	0xbd39373b	-0.045218688
18	0x3c53fa43	0.012938085
19	0xbbad2449	-0.0052838665
20	0x3c21d1fc	0.009876724
21	0x3ca1587d	0.019695515
22	0x3c1020ae	0.008796854
23	0x3c85f3e4	0.016351648
24	0x3bdf04ee	0.0068060076
25	0xbc23ce16	-0.009997865
26	0x3c2d3982	0.010572793
27	0x3ac9fa50	0.0015409682
28	0xbbfa6502	-0.0076414356
29	0x3c31375d	0.010816422
30	0xbc98392e	-0.018581953
31	0xbbc8bb87	-0.0061258706
32	0xbc706cbc	-0.014674362
33	0xbc5bfa04	-0.013426308
34	0x3a84e0b4	0.0010137768
35	0x3bb9935a	0.0056633176
36	0xbc04cd20	-0.008105546
37	0x3abe168e	0.0014502571
38	0xbc7f74ee	-0.015591843
39	0x3c4f175a	0.012639845
40	0xbc52f2ba	-0.012875253
41	0x3ba5e187	0.0050622853
42	0x3c52da4c	0.012869429
43	0x3c2fa62a	0.010720769
44	0x3c57f27f	0.013180374
45	0x3a93b549	0.0011269237
46	0x3b3b92ab	0.0028621356
47	0xbb9f627c	-0.004864035
48	0xbc6920e8	-0.014229037
49	0xbc1f8acd	-0.0097376825
50	0xbc39c80a	-0.011339197
51	0xbccf49ea	-0.0253038
52	0xbb8afe0c	-0.0042417105
53	0xbc57e1a7	-0.013176358
54	0x3c0d9b12	0.008642929
55	0xbb211c8c	-0.0024583666
56	0x3b519e81	0.0031985345
57	0x3bbc2a08	0.005742315
58	0xbc0c6302	-0.008568527
59	0x3c7a9a5a	0.015295589
60	0xbc5f4d61	-0.013629288
61	0x3c385cba	0.0112525765
62	0xbc223b6a	-0.009901861
63	0xbbd90d26	-0.006623882
64	0xbbd93d82	-0.0066296468
65	0x3b1c4fd1	0.0023851285
66	0xbd131a24	-0.0359136
67	0xbb175902	-0.0023093824
68	0x3c176d6b	0.009242396
69	0x3ca70420	0.02038771
70	0x3cec99b4	0.028881885
71	0x3ca23afd	0.019803518
72	0xbb9d7ace	-0.004805899
73	0x3bdb358c	0.006689733
74	0xbb50d9c7	-0.0031868087
75	0x3a4ae4a9	0.00077397615
76	0x3a829d98	0.000996518
77	0xbcad5c3a	-0.021162141
78	0xba426ae6	-0.0007416442
79	0x3cc483a5	0.023988554
80	0xbb5b26d8	-0.00334399
81	0x3af1973f	0.0018431916
82	0xbbbee2ae	-0.005825362
83	0xbc7314a4	-0.014836464
84	0xbc84750e	-0.016169097
85	0xbc257363	-0.010098311
86	0x3c6c1522	0.014409335
87	0xbbc4e1fe	-0.0060083857
88	0xbd10430f	-0.035220202
89	0x3c1c4ccb	0.009539793
90	0xbc1fe806	-0.009759909
91	0x3c88a240	0.01667893
92	0x3bfcfb7c	0.007720409
93	0xbc8759ea	-0.016522367
94	0xbbb2de98	-0.005458664
95	0xbcb878ee	-0.022518601
96	0x3bee6b68	0.0072759874
97	0x3c24a455	0.010048945
98	0xbc355258	-0.011066996
99	0x3ce1c7ab	0.02756103
100	0x3bf9b595	0.007620523
101	0xbc98485c	-0.018589191
102	0x3c1a40c6	0.009414857
103	0x3b968228	0.0045931526
104	0x3c5192ea	0.012791375
105	0x3c6225aa	0.013802925
106	0x3b93a5e2	0.0045058588
107	0x3c8364b4	0.01603923
108	0xbb8eb052	-0.004354515
109	0x3bca6699	0.0061767814
110	0x3c0c06fa	0.008546585
111	0xbc98e248	-0.018662587
112	0x3c9f222d	0.019425476
113	0xbc1a79be	-0.00942844
114	0xba1080f8	-0.0005512382
115	0x3ca3b79c	0.019985013
116	0x3c5cf840	0.013486922
117	0xbc908c68	-0.017645076
118	0xbc3ee7e0	-0.011651963
119	0x3c9baf5e	0.01900452
120	0x3c5c9bcf	0.013464882
121	0x3be43e72	0.006965452
122	0xbca0a558	-0.019610092
123	0xbc089356	-0.008335909
124	0x3b2f1c50	0.0026719756
125	0xbcb92fbf	-0.022605775
126	0x3c61d327	0.013783253
127	0x3c554054	0.013015825
128	0xbbec4a10	-0.0072109774
129	0xbc45607d	-0.01204693
130	0xbcb383b0	-0.02191338
131	0xbc6b3aaa	-0.014357248
132	0x3b45644a	0.0030119591
133	0x3c5ad1c0	0.013355672
134	0x3bc87c61	0.0061183427
135	0xb9477382	-0.00019021149
136	0xbadd89d4	-0.0016902038
137	0x3ac6abfb	0.0015157455
138	0x3c88d929	0.016705113
139	0x3c2ce91c	0.0105536245
140	0x3c2ba858	0.010477148
141	0x3bd444f6	0.0064779473
142	0xbc9a8ba0	-0.018865407
143	0x3c86300a	0.016380329
144	0x3cba7132	0.022759054
145	0x3bcf062a	0.0063178735
146	0xbc9b7053	-0.018974459
147	0x3b297fd0	0.0025863536
148	0xbaadb60a	-0.0013253104
149	0xbcb9b402	-0.022668842
150	0xbc422e10	-0.0118518025
151	0xbc866789	-0.016406791
152	0xbbdbe93e	-0.0067111542
153	0xbc5e9e34	-0.013587523
154	0xbcac1be1	-0.021009387
155	0x3c486811	0.012231843
156	0x3c9ba030	0.018997282
157	0x3aa96b40	0.001292564
158	0x3c8c02f2	0.017091248
159	0xbc71867a	-0.014741534
160	0x3c8cf7ba	0.017207969
161	0xbc794bc5	-0.015215819
162	0xbca6a3be	-0.02034175
163	0xbc39283a	-0.011301095
164	0x3c285cd8	0.010276042
165	0x39a16945	0.00030786745
166	0x3bc775fe	0.006087064
167	0x3cc464c4	0.02397383
168	0xbc31a569	-0.0108426595
169	0xbb07492f	-0.0020642986
170	0xbc0784ab	-0.008271377
171	0x3c9b0ac3	0.01892603
172	0xbbfde694	-0.0077484343
173	0xbd12b2fa	-0.035815217
174	0x3b6140ae	0.0034370827
175	0xbc346866	-0.011011219
176	0xbc15a07c	-0.009132501
177	0xbb07144e	-0.0020611468
178	0x3c08a78c	0.008340728
179	0xbc879446	-0.016550194
180	0x3b1b8754	0.0023731785
181	0x3c12fea2	0.008971842
182	0x3b9b8dea	0.004747142
183	0x3c4a16c7	0.012334532
184	0x3b22719c	0.0024786955
185	0xbc93831d	-0.018006856
186	0x3a0f7006	0.000547171
187	0xbc66354c	-0.014050793
188	0xbc122bbe	-0.008921562
189	0xbc91b8ea	-0.01778837
190	0xbbf7606c	-0.007549336
191	0xbae7561a	-0.0017649562
192	0x3d07457e	0.033025257
193	0xbc75835a	-0.01498493
194	0x3bc45d66	0.0059925793
195	0x3cac4362	0.021028224
196	0x3ad2114a	0.0016026881
197	0x3ca4c88a	0.020115156
198	0x3ce8c1fd	0.028412813
199	0xbc49646d	-0.01229201
200	0xbccb891b	-0.02484565
201	0x3c9b5392	0.018960748
202	0x39cb3063	0.00038755228
203	0x3c03bc18	0.0080404505
204	0x3c680c67	0.014163113
205	0xbc61b1be	-0.013775287
206	0xbbe300d0	-0.006927587
207	0x3c9b9220	0.018990576
208	0x3c1ac66e	0.009446723
209	0x3b44cf24	0.0030030692
210	0x3c099bbe	0.008398948
211	0xbc1bfe52	-0.009521084
212	0xbb5748a5	-0.0032849696
213	0x3c956efe	0.018241402
214	0xbb36d910	-0.0027900375
215	0xbca3231a	-0.019914199
216	0x3c8ed276	0.01743434
217	0xbb942b1a	-0.0045217397
218	0xbabba7e8	-0.0014317008
219	0xbc4d8a68	-0.012545206
220	0x3b91fa58	0.004454892
221	0x3b92797a	0.0044700475
222	0xbbe0b76e	-0.006857804
223	0xbb74cd14	-0.0037353681
224	0x3bbde9a8	0.0057956763
225	0x3ce22ed8	0.027610227
226	0xbcd60538	-0.026125535
227	0xbcbc2e2c	-0.022971235
228	0x3bc6a04e	0.0060615903
229	0x3b194c94	0.0023391591
230	0xbc1f98d0	-0.009741023
231	0x3bd8bf64	0.0066146124
232	0xbb95ae58	-0.0045679025
233	0x3c2dfa80	0.010618806
234	0x3bea1250	0.0071432963
235	0x3bc55c1a	0.0060229423
236	0x3b5e05d6	0.003387799
237	0xbb926a08	-0.0044682063
238	0x3c3edc3a	0.011649186
239	0x3c584a0c	0.013201248
240	0x3ce7086d	0.02820226
241	0x3d169b90	0.03676945
242	0xb9ec03fa	-0.0004501639
243	0xbc9bb41f	-0.019006787
244	0xbb6dfdd6	-0.0036314628
245	0xbc8e5870	-0.017376155
246	0xba3afeb0	-0.00071332883
247	0x3bd12661	0.006382749
248	0x3b018be8	0.0019767229
249	0x3c9622b8	0.018327102
250	0x3b7c53a0	0.0038501993
251	0x3ced10d4	0.028938688
252	0x3cb8adb4	0.022543766
253	0x3c3b5b58	0.011435352
254	0xbbde1307	-0.0067771706
255	0xbbbb4728	-0.0057152696

layer1.bias f4 [32]
0	0x3cdd81e0	0.027039468
1	0x3b753fd2	0.0037422073
2	0x3c8da294	0.017289437
3	0xbc8a7b44	-0.01690448
4	0xbbf66332	-0.007519149
5	0xbbe6844f	-0.0070348154
6	0xbc9b401e	-0.018951472
7	0xbba262c4	-0.0049556214
8	0xbb424ac1	-0.0029646608
9	0xbcb4c8c0	-0.022068381
10	0xbc7c9fdf	-0.015418976
11	0x3b9281b7	0.0044710296
12	0xbc08ff1c	-0.008361604
13	0x3c4ade6c	0.012382131
14	0xba451ee6	-0.0007519558
15	0xbcda41fa	-0.026642788
16	0x3cad92d5	0.021188179
17	0x3a915a47	0.0011089527
18	0xbc57b01c	-0.013164546
19	0xbc4179cb	-0.011808823
20	0x3cc174fa	0.02361535
21	0xbbfae4d3	-0.0076566725
22	0x3cefe789	0.02928521
23	0x3a1a2821	0.00058806135
24	0xbc80e954	-0.01573626
25	0xbca046fc	-0.019565098
26	0x3ca9437a	0.020662058
27	0xbae6b40e	-0.0017601268
28	0xbc9a2944	-0.018818505
29	0xbcca885b	-0.024723222
30	0x3c9a3a82	0.018826727
31	0x3c68a7d2	0.014200168

layernorm1.weight f4 [32]
0	0x3f8005a0	1.0001717
1	0x3f7ffc28	0.99994135
2	0x3f7de460	0.991766
3	0x3f7f6ed2	0.99778473
4	0x3f824b4f	1.0179232
5	0x3f7f42e5	0.9971145
6	0x3f815c7d	1.010635
7	0x3f7e6d14	0.9938519
8	0x3f7d908b	0.9904868
9	0x3f7ea341	0.99467856
10	0x3f815896	1.0105159
11	0x3f7d6d24	0.9899466
12	0x3f7e8914	0.99427915
13	0x3f7c893a	0.9864689
14	0x3f80439e	1.0020635
15	0x3f7f61bc	0.99758506
16	0x3f7ec519	0.995195
17	0x3f7af190	0.98024845
18	0x3f7f2c88	0.99677324
19	0x3f7dd9a6	0.9916023
20	0x3f78bd6e	0.97164047
21	0x3f779603	0.96713275
22	0x3f824228	1.0176439
23	0x3f7ffa85	0.9999164
24	0x3f7b143e	0.9807776
25	0x3f7e9ac0	0.9945488
26	0x3f80ca66	1.0061767
27	0x3f7fb5e0	0.99886894
28	0x3f7f121a	0.99636996
29	0x3f7e22a9	0.9927164
30	0x3f74b61e	0.9559039
31	0x3f7f5891	0.99744517

layernorm1.bias f4 [32]
0	0x3c80a038	0.015701398
1	0x3b7d131c	0.0038616126
2	0xbc1c393c	-0.00953513
3	0x3c4d6056	0.012535175
4	0x3b138fff	0.0022516248
5	0x3c6b68c9	0.014368244
6	0x3be8d3fc	0.0071053486
7	0xbc58fe0a	-0.013244161
8	0xbc4f2177	-0.012642256
9	0xbc81962d	-0.01581868
10	0x3c2ce180	0.01055181
11	0xbc40db43	-0.011771026
12	0xbd12b7c4	-0.035819784
13	0x3c3ca9e8	0.011515118
14	0xb91a12f0	-0.00014693639
15	0xbc4a7a96	-0.012358328
16	0xbbae3396	-0.005316208
17	0xbd1892dc	-0.03724943
18	0x3be5409e	0.0069962284
19	0xbc4506ae	-0.012025518
20	0x3c622a38	0.013804011
21	0xbc099e29	-0.008399525
22	0x3c78e054	0.015190203
23	0xb8c22837	-9.2581315e-05
24	0x3c19c3c6	0.009385055
25	0xbc277cd6	-0.010222634
26	0x3c5a4171	0.0133212665
27	0xbbe2a250	-0.006916322
28	0xbc4f2909	-0.012644061
29	0xbc535594	-0.012898821
30	0xb984668c	-0.00025253405
31	0x3d1cad70	0.03825134

blocks.0.fcn_layer.weight f4 [32, 32]
0	0x3dd35d1a	0.10320492
1	0xbd403e82	-0.046934612
2	0xbd4958f4	-0.049157098
3	0x3dfd05d8	0.1235463
4	0x3cb2a0d1	0.021805199
5	0xbd5979f4	-0.05309482
6	0x3d5f4524	0.054509297
7	0x3e25ffa2	0.16210797
8	0x3b880516	0.004150997
9	0x3cd60021	0.026123108
10	0x3dd921fa	0.10602184
11	0x3d9b90a4	0.075959474
12	0x3c5d5c7c	0.0135108195
13	0x3dee706d	0.11642537
14	0x3d4950b2	0.049149223
15	0x3db0ee4c	0.086392015
16	0x3d89029b	0.0668995
17	0x3e22e12a	0.15906206
18	0x3dd7a26e	0.10529028
19	0x3dd86ac0	0.10567236
20	0xbe453206	-0.19257364
21	0x3e1abb59	0.1511053
22	0xbe51afaf	-0.20477174
23	0x3d15d26d	0.03657763
24	0x3e158936	0.14603123
25	0xbd9a3854	-0.07530275
26	0xbc3eb207	-0.011639125
27	0x3e20e486	0.15712175
28	0x3bb8209c	0.0056191217
29	0x3de20cd2	0.110376015
30	0x3ddb7510	0.10715687
31	0xbe295e37	-0.16539846
32	0xbd981dc6	-0.07427554
33	0xbd19e1c2	-0.037568815
34	0xbe2e4498	-0.17018354
35	0x3dcc1946	0.09965758
36	0xbdac520c	-0.08414087
37	0xbd00e841	-0.031471495
38	0x3c212160	0.009834617
39	0x3de5f82c	0.11228976
40	0xbcf2824e	-0.02960315
41	0x3c6ec168	0.014572479
42	0xbd2bf23a	-0.041979052
43	0x3cd0d433	0.02549181
44	0xbe1d45c0	-0.15358639
45	0xbe1cfa06	-0.15329751
46	0x3b9cdd9a	0.004787159
47	0xbbffb716	-0.007803808
48	0xbd0be136	-0.034150325
49	0x3def7af3	0.116933726
50	0x3e01f192	0.12689808
51	0x3dfc4f5c	0.12319824
52	0x3caa1126	0.02076013
53	0xbdce4c82	-0.100731865
54	0x3da47a9a	0.08031197
55	0xbdffde37	-0.12493556
56	0x3e131154	0.14362079
57	0x3df5f790	0.120101094
58	0xbde12c3e	-0.10994767
59	0x3dab086a	0.08351214
60	0xbc174ba4	-0.009234343
61	0x3d84bfc2	0.064818874
62	0x3d626edc	0.055281505
63	0xbe01c5ac	-0.12673062
64	0x3d93fd34	0.07226029
65	0xbcc61ada	-0.024182726
66	0xbe2b243a	-0.16713038
67	0xbde3fac4	-0.11131814
68	0xbd69e381	-0.05710173
69	0x3e33ba7d	0.17551608
70	0x3dcbb12e	0.09945904
71	0x3c1c6772	0.009546148
72	0xbdf36438	-0.118843496
73	0x3d228a27	0.039682534
74	0xbbf86596	-0.0075804694
75	0x3d9a70c0	0.075410366
76	0xbe1e0ed4	-0.15435344
77	0x3c9e2b6a	0.01930781
78	0xbd9d6148	-0.076845706
79	0xbd6a3261	-0.05717695
80	0xbd3d9da9	-0.046292935
81	0x3a839086	0.0010037578
82	0xbd8a6f1d	-0.067594744
83	0xbdcfdb4a	-0.10149248
84	0xbe1e8a97	-0.15482555
85	0xbda97be6	-0.08275585
86	0xbde45678	-0.11149305
87	0x3e0e0f7b	0.13873093
88	0x3c0ee9be	0.008722721
89	0xbe204304	-0.15650564
90	0xbdb46f16	-0.088102505
91	0x3d263c63	0.040584933
92	0x3d935f87	0.07195955
93	0x3e24df30	0.16100764
94	0xbe1025d0	-0.14076924
95	0x3d705a28	0.05867973
96	0x3e06cd9c	0.13164371
97	0x3d32f3a0	0.04368937
98	0xbe1aec39	-0.15129174
99	0x3d97d3e2	0.0741346
100	0x3e146b52	0.14494064
101	0xbe1f5582	-0.15559962
102	0x3d568342	0.05237127
103	0xbe163932	-0.14670256
104	0xbd64587a	-0.05574844
105	0xbd1fd9d4	-0.039026096
106	0xbd85b0b3	-0.06527843
107	0xbdaad393	-0.08341136
108	0xbe348988	-0.17630589
109	0xbe313cce	-0.17308351
110	0xbd8b18b2	-0.0679182
111	0x3bd6ef68	0.006559301
112	0x3e194ab0	0.14969897
113	0x3d8f9120	0.07010102
114	0xbe1e33fe	-0.15449521
115	0x3e38857e	0.18019673
116	0xbe19f3ee	-0.15034458
117	0x3da65cf6	0.081232
118	0xbe31fbfc	-0.1738128
119	0x3ce7feb2	0.02831969
120	0xbcb99af4	-0.022656895
121	0xbe094f77	-0.1340922
122	0xbbff9e71	-0.00780087
123	0xbdb15e0b	-0.086605154
124	0x3e2e5517	0.17024647
125	0xbe180ac2	-0.14847854
126	0x3d77cc8c	0.060497805
127	0xbdbddf36	-0.0927109
128	0xbe1f16a6	-0.15535983
129	0x3db04d18	0.086084545
130	0x3e13bd9e	0.14427802
131	0xbe034237	-0.12818228
132	0x3e357828	0.17721617
133	0xbe0b3b94	-0.13596946
134	0x3db4b5d5	0.08823744
135	0xbe033ee4	-0.1281696
136	0xbda93654	-0.082623154
137	0x3e0cece8	0.13762248
138	0x3e0a367c	0.13497347
139	0x3cb83000	0.022483826
140	0xbd8dc1b1	-0.06921709
141	0x3da5146d	0.080605365
142	0xbd6c1cd2	-0.057644673
143	0xbd81000e	-0.062988386
144	0xbdb703a3	-0.089362405
145	0x3d84d1ce	0.064853296
146	0x3c83ca8e	0.016087797
147	0xbe1798f6	-0.14804444
148	0xbd7f182a	-0.062278904
149	0x3d9bcc92	0.07607378
150	0xbd195a77	-0.03743979
151	0x3cced45f	0.02524775
152	0x3dc75dae	0.09734665
153	0xbe258d61	-0.16167213
154	0x3d12a574	0.03580232
155	0xbdbfb5ee	-0.09360872
156	0xbe21be7a	-0.15795317
157	0xbe093c1f	-0.1340184
158	0xba68ef90	-0.0008885795
159	0xbdd138d2	-0.10215916
160	0x3e238c80	0.15971565
161	0x3e2d1c00	0.16905212
162	0x3e001294	0.12507087
163	0x391676e2	0.00014349402
164	0x3e045134	0.12921602
165	0x3d3e1880	0.046410084
166	0x3d338a52	0.043833084
167	0x3e0e5dad	0.13902922
168	0x3e12e2fc	0.143444
169	0x3af7eef8	0.0018915823
170	0xbd47ddc8	-0.04879549
171	0x3daa9dd2	0.08330883
172	0xbd01c91e	-0.03168594
173	0xbddc1ec0	-0.107480526
174	0xbdf794c8	-0.12088925
175	0x3ddc6230	0.10760915
176	0xbde3a74e	-0.11115895
177	0x3e25a2ab	0.16175334
178	0xbc30d29e	-0.010792403
179	0xbe1782b8	-0.14795959
180	0x3dd57b6e	0.10423933
181	0xbd1e1e5b	-0.038603168
182	0x3e04edb4	0.12981302
183	0x3c77cadb	0.015124048
184	0x3ded3bc9	0.11583669
185	0x3d398dcf	0.045301255
186	0x3cde41cd	0.027130986
187	0x3da0b233	0.07846489
188	0x3d85f509	0.06540877
189	0xbd6598b8	-0.056053847
190	0x3dbcd362	0.092200056
191	0xbd8d2dc4	-0.06893495
192	0xbda67e54	-0.08129564
193	0x3c01e5d4	0.00792833
194	0xbd8c9553	-0.06864419
195	0xbdf2b74c	-0.11851367
196	0x3db07731	0.08616484
197	0xbc5f49cd	-0.013628435
198	0x3ab57fca	0.0013847288
199	0x3c358b5d	0.01108059
200	0xbd7fe8a5	-0.062477726
201	0x3d9b1f6e	0.07574354
202	0x3daa0a04	0.083026916
203	0x3db385cf	0.08765756
204	0x3e32148c	0.1739065
205	0xbe342bb6	-0.175948
206	0x3df6961c	0.1204035
207	0x3d92a96e	0.071612224
208	0x3ce034df	0.02736896
209	0xbb9116ef	-0.0044277827
210	0x3dd9dc08	0.10637671
211	0xbdc9fc1c	-0.09862539
212	0x3da69d44	0.08135465
213	0xbe2e8a08	-0.17044842
214	0xbe0eb23f	-0.13935183
215	0xbc932656	-0.017962616
216	0x3e0246f8	0.12722385
217	0x3df88b8c	0.121359915
218	0xbcb156c4	-0.021647818
219	0x3de652b0	0.1124624
220	0x3e038eba	0.12847415
221	0xbe09b5b2	-0.13448218
222	0x3db2f2a6	0.08737688
223	0x3ce734b4	0.028223373
224	0x3ca371be	0.019951697
225	0x3e26f184	0.16303068
226	0x3d0d9127	0.034562256
227	0x3b8c3f82	0.0042800317
228	0xbe327ebc	-0.17431158
229	0x3d251143	0.040299665
230	0x3db661be	0.089053616
231	0xbd8dc35c	-0.069220275
232	0xbb834769	-0.0040063155
233	0xbd80c7b4	-0.0628809
234	0x3df71970	0.12065399
235	0xbdd864b3	-0.10566082
236	0xbdc72986	-0.09724717
237	0xbd4fc432	-0.050724216
238	0x3e1dd667	0.15413819
239	0x3b8d2536	0.0043074144
240	0x3cc74cad	0.024328554
241	0xbd9af6f0	-0.07566631
242	0xbdb42e44	-0.08797887
243	0xbe24b806	-0.16085824
244	0xbc7e9ca5	-0.015540277
245	0x3d1b45c6	0.037908338
246	0x3d44507e	0.047928326
247	0x3df08a6c	0.11745152
248	0xbbcf33cb	-0.006323313
249	0xbe24e9c2	-0.16104797
250	0xbdca9690	-0.09891999
251	0x3df89f5c	0.121397704
252	0xbe19b0dc	-0.15008873
253	0xbd0ea9c2	-0.034829862
254	0x3c6b005c	0.014343347
255	0xbd244d29	-0.04011265

blocks.0.fcn_layer.bias f4 [32]
0	0xbdfefcf9	-0.124505945
1	0x3e1d55a8	0.15364707
2	0x3cf5ba64	0.029996105
3	0x3e26dc14	0.1629489
4	0xbe19e9bb	-0.15030567
5	0x3d6f7734	0.05846329
6	0x3d376836	0.044777118
7	0x3bb79b96	0.005603264
8	0xbcef48ca	-0.029209513
9	0xbd027fc8	-0.031860143
10	0xbe25ab19	-0.1617855
11	0x3c638d3a	0.0138886515
12	0x3dc7e48a	0.09760387
13	0x3b02689a	0.0019898773
14	0x3d36fb8a	0.04467348
15	0xbd71b51d	-0.059010614
16	0x3e0b7a08	0.1362077
17	0xbb225f27	-0.0024775953
18	0xbc847562	-0.016169254
19	0xbe049f40	-0.12951374
20	0x3c908b9a	0.017644692
21	0xbe2d913c	-0.16949934
22	0x3d06f602	0.032949455
23	0x3befa7fa	0.0073137255
24	0xbdf356b8	-0.11881775
25	0x3e40e50c	0.18837374
26	0xbe1a1156	-0.15045676
27	0xbe20b621	-0.15694477
28	0x3d214b16	0.03937825
29	0x3dd69d1a	0.104791835
30	0x3da7e10a	0.0819722
31	0x3e206416	0.1566318

blocks.0.layer_norm.weight f4 [32]
0	0x3f7f8518	0.9981246
1	0x3f7e758d	0.9939812
2	0x3f851a44	1.0398641
3	0x3f82435c	1.0176806
4	0x3f7f56a4	0.9974158
5	0x3f9cf11a	1.2261078
6	0x3f7f9206	0.9983219
7	0x3f80b488	1.0055094
8	0x3f878d2f	1.0589961
9	0x3f9c17bd	1.2194744
10	0x3fa6ba4f	1.3025607
11	0x3fa8e206	1.3193977
12	0x3f857da4	1.0428967
13	0x3f81913c	1.0122447
14	0x3f7fec78	0.999702
15	0x3fa804b0	1.312643
16	0x3f7f9880	0.9984207
17	0x3f801c12	1.0008566
18	0x3f8780e2	1.0586207
19	0x3fa3bcb5	1.2791964
20	0x3f801643	1.0006794
21	0x3f7fa85e	0.9986628
22	0x3f9e7776	1.2380207
23	0x3f9f238c	1.2432723
24	0x3f88f037	1.0698308
25	0x3fa0bcb9	1.2557594
26	0x3f8440ab	1.0332235
27	0x3f7c7a5f	0.98624223
28	0x3f7f566c	0.99741244
29	0x3f81be76	1.0136249
30	0x3f89b4ce	1.0758302
31	0x3f7d53be	0.98955905

blocks.0.layer_norm.bias f4 [32]
0	0xbc112a24	-0.008860145
1	0xbbca80d2	-0.0061799074
2	0x3d31796d	0.04332869
3	0x3d1a6f96	0.037704073
4	0xbc3ec4e2	-0.01164362
5	0x3e7524f9	0.23939885
6	0xbabc333f	-0.0014358534
7	0x3c2eeae0	0.010676116
8	0x3d5296a8	0.05141321
9	0x3e753705	0.2394677
10	0x3e8b36f6	0.2719037
11	0x3e8f73b2	0.28017956
12	0x3d38232e	0.044955425
13	0x3c752798	0.014963053
14	0xb9fdc33c	-0.0004840138
15	0x3e8d7ce9	0.2763436
16	0xbb42950e	-0.0029690894
17	0xbb7b59d0	-0.0038353093
18	0x3d0cf6e3	0.034415137
19	0x3e880951	0.26569608
20	0x3a6d3666	0.00090489385
21	0xba69dac1	-0.00089208415
22	0x3e785f98	0.24255216
23	0x3e7ba3fc	0.24574274
24	0x3d56adef	0.05241197
25	0x3e7e4868	0.24832308
26	0x3c5764d1	0.013146595
27	0xbba24886	-0.004952493
28	0xbbda36da	-0.006659371
29	0x3d5e0a7d	0.05420922
30	0x3d445994	0.04793699
31	0xbc8843b3	-0.016633844

last_layer.weight f4 [1, 32]
0	0x3ded5818	0.11589068
1	0xbd6c19be	-0.057641737
2	0x3e2e53fa	0.17024222
3	0xbce67d29	-0.028135853
4	0x3c90b3ae	0.017663803
5	0xbeb77702	-0.35832983
6	0xbd145f6f	-0.036223825
7	0x3d0dde78	0.03463599
8	0x3e3937a6	0.18087634
9	0xbeb1ece2	-0.3475104
10	0xbea85bbc	-0.32882488
11	0xbea64774	-0.3247639
12	0x3dec176f	0.11527907
13	0xbc731535	-0.014836599
14	0x3e20a510	0.15687966
15	0xbea86a6a	-0.32893687
16	0x3e1f63cc	0.15565413
17	0x3d8b2c7e	0.067955956
18	0x3e59f302	0.21284106
19	0xbea251fd	-0.31703177
20	0xbd477f96	-0.04870566
21	0x3c84db58	0.016217873
22	0xbeb84e86	-0.3599741
23	0xbeb41287	-0.35170385
24	0x3e0f05da	0.13967076
25	0xbebbc994	-0.3667723
26	0x3e310054	0.17285281
27	0x3bb5847c	0.005539475
28	0x3e0579e1	0.13034774
29	0xbd37df0e	-0.044890456
30	0x3e46e61e	0.1942372
31	0xbd73052c	-0.059331104
