my_custom_model/activate_assistant.onnx (onnx, 206292 bytes, 9 tensors)

layer1.weight f4 [32, 1536]
000000 e0 81 a4 bc 93 04 05 3c e3 8f 1d 3b 4d 2b 06 3d
       -0.02008146 0.008118766 0.0024042062 0.03275614
000010 ac 0b 02 bc a3 fd f5 bb 0a 54 b9 bc e4 9b ef 39
       -0.007937353 -0.0075070425 -0.02262308 0.0004570178
000020 4b 1f 4c 3c 63 a3 ba bc 3c 00 75 bc 1b 18 22 bc
       0.012458633 -0.022782987 -0.014953669 -0.0098934425
000030 3f a9 f6 bb 4a b9 6e bc 91 50 35 3b 2a 61 00 bd
       -0.0075275 -0.014570544 0.002766643 -0.031342663
000040 a5 ce 31 bd 17 38 35 bd 20 eb f3 3c ad b0 01 3d
       -0.043409962 -0.044242945 0.029775202 0.03166263
000050 7f 21 1c 3d 94 8a a1 bc ae 71 62 3c 6e d1 80 3c
       0.038117882 -0.0197194 0.013821049 0.015724864
000060 2e fc 22 bd 2c df 9e bc 46 c6 a6 bb 77 0b d3 bc
       -0.03979128 -0.019393526 -0.005089554 -0.025762303
000070 f4 b3 9d 3c b2 ef 06 3d bc 8f 03 bd 86 9d 2f bc
       0.019250847 0.032943435 -0.032119498 -0.010718709
000080 03 8e 6b bc 9e ae 02 3b 98 9f 87 b9 4e 88 1a bc
       -0.01437712 0.0019940506 -0.00025868113 -0.009431912
000090 62 7e 04 3d 3d cf 92 bc 2c a9 1f 3d ab 49 bc 3c
       0.03234709 -0.017921085 0.038979694 0.022984346
0000a0 c2 7b 07 3c 14 92 7b bb 18 99 fb bb 43 6b 93 bb
       0.008269252 -0.003838663 -0.0076781623 -0.0044988706
0000b0 5e b1 63 bc e8 84 50 bc 4d e5 dd bb 72 87 41 3c
       -0.013897268 -0.012727 -0.0067717195 0.011812078
0000c0 e1 9e e3 3c f6 9f 87 bb 69 35 c3 bc 9a 58 f3 b9
       0.02778572 -0.004138942 -0.023829179 -0.00046414585
0000d0 5e e7 4c 3c 11 74 a6 bc 25 ef 81 3b db ee 56 3c
       0.012506334 -0.020319017 0.003965276 0.013118471
0000e0 be 34 10 3c 0c f8 06 ba aa fb 90 3b 31 eb 7d bb
       0.008801637 -0.0005148656 0.004424532 -0.0038744921
0000f0 81 36 e8 bc 11 c3 96 3c 74 f8 ec bc 14 c0 2d bb
       -0.028346302 0.018403562 -0.028927065 -0.0026512193
000100 ce ca 96 bb e5 ed 90 3c 75 f5 55 bc 6a 9e 0d 3b
       -0.004601813 0.017691562 -0.01305901 0.0021609315
000110 5b 92 a3 3c 37 2b 52 ba d6 a3 92 3c 21 20 30 3c
       0.019967249 -0.0008017304 0.017900389 0.010749848
000120 a7 21 02 bc 5d 4e 33 3c 05 b1 6b bc cd 5a b3 bc
       -0.007942594 0.010943976 -0.014385466 -0.021893883
000130 c1 a9 8f 3c 9a a5 12 3c f5 c3 14 bc 94 ab b1 3c
       0.017537 0.008950615 -0.009079923 0.02168826
000140 d7 51 20 b9 65 3c be bb 1e d9 fd 3c 38 d8 0e bd
       -0.00015289277 -0.0058055394 0.030987319 -0.03487417
000150 f3 e9 4f ba d8 ff bf 3b 2b 7b 2f 3c 2e 86 87 3c
       -0.00079312845 0.0058593564 0.010710518 0.016543474
000160 61 dd c1 bc fc ac c9 3c 41 5d 09 3c a8 b7 cf 39
       -0.023665132 0.024618618 0.00838405 0.0003961895
000170 aa 6f b7 bc 7e 1b 01 bc b3 2c d2 b9 98 e7 29 bc
       -0.022392113 -0.00788009 -0.00040087625 -0.010370158
000180 11 19 63 bc fa d3 14 3c 6b 7d 46 3b c0 dd 23 3d
       -0.013860957 0.009083742 0.0030287157 0.0400064
000190 92 7e 4d bc 1f eb fe 3b f0 03 64 3c fa 65 ad bc
       -0.012542384 0.0077794935 0.013916954 -0.02116679
0001a0 71 b7 40 3b 53 3b c9 3c 38 93 97 bc 9b f4 6d 3b
       0.0029406215 0.02456442 -0.018502817 0.0036309126
0001b0 d3 86 0a 3c 43 01 87 3b 35 a6 a4 3c c3 d5 e1 bc
       0.008454996 0.0041200235 0.020098785 -0.02756775
0001c0 74 b1 31 bc f3 b4 db bc dc 85 d3 bc f0 b5 58 3c
       -0.010845531 -0.026819682 -0.025820665 0.013226971
0001d0 f9 e7 0a 3d a6 b7 e3 bc 17 30 9b ba 75 3d fe 3a
       0.033912633 -0.027797531 -0.0011839893 0.0019396978
0001e0 46 62 ce bc 9f ae 25 bc dc cc 39 bc 1e 9a d5 bc
       -0.025193345 -0.010112434 -0.011340346 -0.026074465
0001f0 b9 4e 85 3c fc 36 2c 3d 9e fb f2 3b 45 73 76 bc
       0.01627289 0.042044625 0.007415249 -0.015042131
000200 d0 44 a0 bc e8 71 43 3c 18 de 8b 3c bd 23 86 bc
       -0.019564062 0.011929013 0.017073676 -0.016374463
000210 7a f0 30 bc 5c 6f e9 3c b7 95 a2 bb a0 4d 4e bc
       -0.010799522 0.028495483 -0.004961695 -0.012591749
000220 9c 03 9e 3c c9 ff 45 3b 6e 63 30 3c f8 76 00 bd
       0.01928883 0.0030212274 0.010765893 -0.031363457
000230 20 ab bd 3b 96 c7 fa bb 84 67 d1 bc 6f b1 3f bb
       0.005788222 -0.007653187 -0.025562055 -0.0029250046
000240 d5 ba 5b 3c 5e 21 29 bb 50 3f dc bc d0 4b e0 bb
       0.013411243 -0.0025807242 -0.026885659 -0.006844975
000250 14 41 8d 3c 65 31 17 bc 55 6c 4d bc 90 8d bc bc
       0.017242946 -0.009228085 -0.012538035 -0.023016721
000260 c1 48 64 3c 6e 49 c3 3c 54 7c cb bc 93 47 7c 3c
       0.0139333615 0.023838725 -0.024839558 0.015397924
000270 27 c1 e8 3c 4f be 15 3d e6 e8 b4 3c ba 81 ee 3b
       0.028412415 0.036558446 0.02208371 0.007278648
000280 3b 36 f7 bb 81 d6 8b 3b 9a fb 7d bb e6 30 9e 3b
       -0.0075443066 0.004267514 -0.0038754703 0.0048276065
000290 54 12 a9 bc 83 31 50 bb b0 dc 22 3d 7f 15 b7 3b
       -0.020638622 -0.0031767793 0.039761245 0.0055872793
0002a0 3a 40 d0 bc 10 80 a4 3c b5 49 6b bc 77 97 3b 3a
       -0.02542125 0.020080596 -0.014360835 0.0007156054
0002b0 41 aa ee 3c 72 d5 26 bc 9a 71 9c 3c d1 52 87 3b
       0.029133918 -0.010182725 0.019097138 0.0041297455
0002c0 9e 77 e5 3b 57 12 b1 bc b7 cd d2 3c 52 0f a3 bc
       0.007002785 -0.02161519 0.025732858 -0.019904766
0002d0 97 d5 a6 bc 63 dd 5a 3c 94 04 1a 3d cd 51 57 3c
       -0.02036552 0.013358447 0.037602022 0.013142061
0002e0 87 bd 38 3c 66 75 62 ba b0 24 6f bc 31 11 92 3c
       0.011275656 -0.00086387096 -0.014596149 0.017830463
0002f0 e7 7f 82 3c 9b 7c b7 3c 74 85 ad bb da 62 58 bc
       0.01593013 0.022398284 -0.00529545 -0.013207162
000300 3a 11 38 3c 6c 9d 31 bc 01 ad 91 bb 4a 76 62 3d
       0.011234576 -0.010840755 -0.0044456725 0.05528859
000310 a8 9e 14 3c 12 ef 6b bc c1 86 4e bc e0 53 25 bb
       0.00907103 -0.0144002605 -0.01260537 -0.0025226995
000320 2a 94 17 bc 28 b3 19 bc 93 30 9a bc b3 61 a1 3c
       -0.009251634 -0.009381093 -0.01882199 0.019699907
000330 ca f2 17 bc 39 2b bf bb cc 8d d9 ba b4 64 6b 3b
       -0.009274194 -0.00583401 -0.0016598045 0.0035918178
000340 b7 37 1f bc a8 fd ec bc ca ab e4 bc e1 1c 40 bc
       -0.009717873 -0.028929546 -0.027913947 -0.011725635
000350 1f ce 76 bc 9b d0 b3 3c 50 ae 64 bc 7a a2 ac bc
       -0.015063792 0.021950057 -0.013957575 -0.021073569
000360 c0 f1 90 3c e0 19 01 3c de f6 d4 bc 10 e3 4e bb
       0.0176934 0.007879704 -0.025996622 -0.0031568445
000370 90 94 b3 3c 6f 14 f9 3b 13 6f 5b bc 27 2e 39 3c
       0.021921426 0.007601313 -0.013393181 0.0113025075
000380 00 3a 15 bb a5 6e 5f 3c 4d aa 2f 3c a4 88 36 bc
       -0.0022770166 0.01363722 0.010721755 -0.011140976
000390 c1 51 e7 bb 0b dd 3d 3c 52 e3 65 3c c3 f8 3e bb
       -0.0070593064 0.011588345 0.014031248 -0.0029139973
0003a0 69 9d 8d bc 56 14 56 3c ad 20 75 bb 51 4c 47 3b
       -0.017286973 0.013066372 -0.003740351 0.0030410478
0003b0 bc 05 8f 3c 1d c5 b3 bc 46 e8 2a ba 43 49 13 bb
       0.017458789 -0.021944577 -0.0006519597 -0.0022474087
0003c0 d7 9a 35 3c 1b f0 88 bc a5 7f ca bc a9 21 b2 3c
       0.01108428 -0.016716054 -0.024719069 0.021744566
0003d0 82 0b 0a bc a6 2d 97 ba 5d 03 35 3c 37 41 91 bc
       -0.008425595 -0.001153399 0.011048165 -0.017731292
0003e0 22 98 3d 3c 09 74 3b 3b ea 20 eb 3b 57 00 9d bb
       0.011571916 0.0028603098 0.0071755545 -0.0047913003
0003f0 5a 56 89 3b 99 13 0b 3c 09 3b 24 ba 33 7f 1f 3c
       0.004191202 0.008488559 -0.00062649004 0.0097349165

layer1.bias f4 [32]
000000 24 2d 21 3c 3d 9f c5 bc d5 79 81 bc e7 a3 bd bc
       0.0098374225 -0.024123782 -0.015805164 -0.023149444
000010 b7 58 82 bc 68 78 00 bc a6 e3 83 3c a1 9f a3 bc
       -0.015911443 -0.007841207 0.016099762 -0.019973578
000020 9f d2 3d bc d0 30 06 3c f5 b9 41 3b c1 f3 90 bc
       -0.0115858605 0.008190349 0.0029560302 -0.017694356
000030 3d e1 aa 3c 10 26 19 3a 0e 7c 1d 3b 4d a0 42 bb
       0.020859355 0.00058421586 0.0024030241 -0.0029697597
000040 e4 89 61 3c f4 a4 97 3c 39 d1 98 ba 81 5e 56 3c
       0.013765786 0.018511273 -0.0011659033 0.013084055
000050 03 9d a4 3c b2 45 39 3c 4b 56 a8 3c 78 b0 95 bc
       0.0200944 0.011308121 0.02054896 -0.018272623
000060 77 aa b6 bc fe fd 5c bc 61 06 df bb f5 70 82 3c
       -0.02229808 -0.013488291 -0.0068061803 0.015923003
000070 fe 27 8f bc 51 75 42 3c 25 d3 e6 bc 25 c8 19 bc
       -0.017475124 0.011868791 -0.028176853 -0.009386097

layernorm1.weight f4 [32]
000000 61 63 80 3f a1 ea 77 3f dc 6d 7c 3f 84 51 7e 3f
       1.0030328 0.9684239 0.9860513 0.9934313
000010 15 58 86 3f 97 94 82 3f 49 0b 82 3f 87 73 7f 3f
       1.049563 1.0201596 1.0159694 0.99785656
000020 3f 67 7b 3f 4b d0 84 3f cb d7 7c 3f f1 36 94 3f
       0.98204416 1.0376066 0.98766774 1.1579267
000030 36 fc 7f 3f 4c 94 81 3f 32 c4 80 3f bf 26 83 3f
       0.9999422 1.0123382 1.0059874 1.0246199
000040 a0 c8 7d 3f 4d 24 83 3f 80 48 80 3f 99 d2 7b 3f
       0.99134254 1.0245453 1.0022125 0.9836822
000050 46 04 7a 3f ed 08 83 3f 92 6f 81 3f e4 e3 7b 3f
       0.9766277 1.0237099 1.0112174 0.9839461
000060 5f 98 82 3f bf d7 80 3f 5e 60 81 3f 38 00 6f 3f
       1.020275 1.006584 1.0107534 0.9335971
000070 b5 80 83 3f 5d ab 7f 3f dc b1 7e 3f 9c 27 8a 3f
       1.0273653 0.99870855 0.9949014 1.0793338

layernorm1.bias f4 [32]
000000 a9 f3 63 3c fb 93 89 bc 6a 2c 9a bc 4b 53 4a bd
       0.013913074 -0.016794195 -0.018820006 -0.04939584
000010 f3 65 52 3c 23 65 de 3c e5 b1 d3 3b 98 32 6c bc
       0.012841689 0.027147835 0.0064604157 -0.014416359
000020 4f ce 5d 3c 12 02 b3 3c f6 2f fb bb 85 8b f4 3d
       0.013537957 0.021851573 -0.0076656295 0.11940674
000030 1e 25 1c 3c 1d 0a 8f 3c 30 cf c7 3c a9 d4 4d 3c
       0.009530334 0.017460877 0.024390787 0.012562909
000040 89 b5 43 3c 04 90 05 bc 90 ab 7d 3b f5 9a 53 bb
       0.011945137 -0.008152012 0.0038706996 -0.0032288407
000050 6b 54 9c 3c 3b 68 a2 3b 6a c3 a2 3c 48 a3 9b 3b
       0.019083222 0.004956273 0.019868571 0.0047496893
000060 5c 4c 0e 3d c9 ab 1f 3c 18 b6 f4 ba 7f e6 81 bb
       0.03474079 0.009745547 -0.0018669991 -0.003964245
000070 32 f6 2b 3d e8 7d 46 bb 96 6c 69 bc 49 25 a6 3d
       0.041982837 -0.0030287448 -0.01424708 0.0811258

blocks.0.fcn_layer.weight f4 [32, 32]
000000 4c b4 d8 bd 6f 53 aa 3d 8d c5 c6 bd ac 22 33 bd
       -0.10581264 0.08316695 -0.097056486 -0.043734238
000010 1f 22 01 bd 38 02 06 be 90 4e dc 3d b9 de 0c 3e
       -0.03152668 -0.13086784 0.10757172 0.13756837
000020 0d 0b 87 3d 1e 1b df bb cc a5 11 be 96 61 ff bd
       0.06593905 -0.0068086525 -0.14223403 -0.12469785
000030 ff de ce bc 3a 76 3c 3e 2f 81 8b bd 61 6d 0b be
       -0.025252817 0.18404475 -0.06811749 -0.13615943
000040 f4 48 23 be 88 13 00 bc 20 bb bd bc 56 a0 c3 bc
       -0.15945798 -0.007817157 -0.023160517 -0.023880165
000050 cd da 2a 3e ba d3 c6 3d e0 f3 fe bc 80 29 4a bd
       0.16685028 0.097083524 -0.031122148 -0.049355984
000060 d3 1b 23 3e 60 43 01 3e 63 79 05 3e d0 4b 92 3d
       0.15928583 0.12623358 0.13034587 0.07143366
000070 4c 87 05 bd c6 0b d9 bd dc cc ec bc 6a 48 80 be
       -0.032599732 -0.10597949 -0.028906278 -0.25055248
000080 3e 76 9f bd 1a e0 76 3c f9 2a 30 3e 0c bf b4 bd
       -0.07786225 0.015068078 0.17203893 -0.08825502
000090 03 52 9b bd 15 67 7a 3d d7 00 3a be 3d b6 52 3d
       -0.07584002 0.061133463 -0.18164383 0.051443327
0000a0 3d 3a f9 3d 66 63 1a 3e a5 65 48 bd 35 a9 0e 3e
       0.12169311 0.1507698 -0.04892506 0.13931735
0000b0 91 f7 95 3d a1 48 02 be 0d ac f2 bd 21 ce 1e be
       0.0732261 -0.12723018 -0.11849222 -0.1550832
0000c0 c7 7a 28 3e d3 a7 6d 3e 67 18 9d 3d 88 99 0d 3d
       0.16453086 0.23208551 0.0767067 0.034570247
0000d0 20 13 42 3c 25 60 3e 3e d8 d7 84 bd 8f 5a 81 bd
       0.01184538 0.18591364 -0.064864814 -0.06316101
0000e0 98 d7 b8 bd 1c 9c b9 bc 30 60 29 3e ec 76 18 bd
       -0.09025496 -0.022657447 0.16540599 -0.037222788
0000f0 c8 ba 22 3e b2 25 e8 bc d6 8c 30 be 37 80 fe bc
       0.15891564 -0.028338287 -0.17241225 -0.031066997
000100 c7 4a 1e 3d d1 b7 0e bc 3e d9 de 3c e7 60 27 be
       0.038645532 -0.008710817 0.027203199 -0.16345559
000110 76 b2 22 be 25 c8 0d be 83 2b 03 3e 30 fe 66 bd
       -0.1588839 -0.1384588 0.12809567 -0.056394756
000120 b9 15 0e bd 16 64 75 bd a9 b4 ad bc 84 3a 4b bd
       -0.034688685 -0.059909903 -0.02120431 -0.04961635
000130 01 b1 ca bd 4f d3 e7 3d 44 2c db bd 72 69 b4 bc
       -0.09897042 0.11319601 -0.107018024 -0.022022936
000140 27 b5 0b be 95 e8 bd bd 96 8b 79 bd a6 11 ad bd
       -0.13643323 -0.09272877 -0.060924135 -0.08450632
000150 32 b8 4e bd a4 4c 05 3d 39 2e f4 3d 0f c0 91 3d
       -0.05046863 0.032543793 0.11922879 0.071167104
000160 de 03 ec 3d cc 7c b7 3d 96 d5 0a bd 79 41 7c 3d
       0.11524175 0.0895935 -0.033895098 0.061585877
000170 7a 46 ad bd 7c 9e fc 3d f1 6b 24 3e cf a1 83 bd
       -0.08460708 0.12334916 0.16056801 -0.06427347
000180 48 2c ce bb 1d c8 9b bd 5a a9 0c 3e 65 9a 0b be
       -0.0062919 -0.07606528 0.13736477 -0.13633116
000190 0f 1c 58 be 84 00 e2 3d eb 8f a6 3d 31 f3 15 bc
       -0.21104454 0.110352546 0.08132919 -0.00915222
0001a0 4b 94 10 be 33 13 c6 bc 72 60 2b be 5e 95 b6 3c
       -0.1411907 -0.024179077 -0.1673601 0.02228802
0001b0 4e ab b5 bd e1 50 1b 3e 27 40 61 3d 6b 09 a3 bd
       -0.088705644 0.15167572 0.05499282 -0.07960781
0001c0 b2 98 d6 3d 7c ad b1 3d 5d 46 4b bd 06 bf 07 3e
       0.10478343 0.08675668 -0.04962765 0.13256463
0001d0 21 59 15 3e 8c 18 00 3e 4e a3 50 3d ea 18 1b 3e
       0.14584781 0.12509364 0.05093699 0.15146223
0001e0 8b 23 a6 3d 76 7f 8c bd f4 9b 32 bd fb 3a a6 3c
       0.08112248 -0.06860249 -0.04360576 0.020291796
0001f0 ed 9a ab 3d 86 8c 32 bd 4d cf ae bc 54 e4 04 3e
       0.08379159 -0.043591045 -0.021339083 0.12977725
000200 90 d1 f7 bd bc ce 05 3e 15 a5 37 3d 23 28 b2 3d
       -0.12100518 0.13067144 0.04483517 0.08699062
000210 20 18 1c be c8 f6 42 be b7 75 f8 3b 1c ff f2 3d
       -0.15243578 -0.19039452 0.007582392 0.118650645
000220 a4 0c 86 3d d5 9c 05 3e 8e 3f 1f bd 76 61 83 be
       0.0654538 0.13048108 -0.03887897 -0.25660294
000230 86 de f0 bd 8c 19 f4 3d f2 f7 38 be 0c 4f 0d 3e
       -0.11761193 0.11918935 -0.18063334 0.13799685
000240 27 eb 9a bd 83 57 07 bd 1d 64 df bc e2 71 14 be
       -0.07564383 -0.033042442 -0.027269417 -0.14496568
000250 0a 57 93 3c 27 08 31 3e fa 28 07 bd 26 e3 8e bc
       0.01798584 0.17288266 -0.032998063 -0.017442297
000260 d6 ab 3b bc 35 95 ff bd 58 70 a2 3d 5d fe 57 bd
       -0.011454543 -0.12479631 0.07931584 -0.052732814
000270 4e ec d4 3d 5a a9 5e 3d 16 a8 95 bc 50 8f cb 3c
       0.10396634 0.054360725 -0.018268626 0.02484861
000280 6f 8b 1b be 8f 75 31 bd 14 50 c6 3d 81 e0 3a 3e
       -0.15189908 -0.043325003 0.096832424 0.18249704
000290 f3 35 4c 3e 3a 90 9a bc f3 2a 18 3e 49 33 bc bd
       0.19942455 -0.0188676 0.14860134 -0.09189469
0002a0 d8 71 47 bd 31 29 ad bd 3b 18 a7 3d 0d 4f d8 bd
       -0.048692554 -0.08455122 0.081589185 -0.10561953
0002b0 29 20 f8 3c 19 95 61 bd 34 5d db 3c 4e 1f 92 bd
       0.030288773 -0.05507383 0.026777841 -0.07134877
0002c0 fe 19 0d 3d ff 44 a3 bd 72 6e 44 be 98 9a 1b bc
       0.034448616 -0.07972144 -0.19182757 -0.009497307
0002d0 98 15 be 3d c6 52 e3 bd 70 89 4a bc e1 03 2c 3e
       0.092814624 -0.11099772 -0.012361869 0.16798355
0002e0 21 93 b8 3d fe fc 07 be cf 2d 00 3e 45 aa 1c 3d
       0.090124376 -0.13280103 0.12517475 0.03824832
0002f0 fd e8 98 3d 1e 87 23 bd e4 c7 09 3e 5d d6 9a bc
       0.07466314 -0.03992378 0.13455158 -0.018901045
000300 92 e6 3d 3c cc 7b 0f 3e 8b 95 fe bd 2b 5a 9e 3d
       0.011590617 0.14012069 -0.12430867 0.07732042
000310 c8 e4 09 be b7 b0 7b 3d 04 4a 59 bd 47 11 72 3d
       -0.1346618 0.061447825 -0.053049102 0.05909851
000320 f9 a8 0e 3e 72 d4 de bb bd 7e 98 bd ea 2e 1a be
       0.13931645 -0.006800228 -0.074460484 -0.15056959
000330 06 74 ef bd d9 dd 83 bd e6 15 bc bc 57 a1 2f be
       -0.116920516 -0.064387985 -0.02295966 -0.1715139
000340 58 9e 4f bd 21 82 33 bd 3f 26 71 3c 74 db 08 3e
       -0.050688118 -0.043825272 0.014718591 0.13364965
000350 d4 fd a8 bc b2 35 3e 3e 11 b1 0d 3e 44 62 03 be
       -0.020628847 0.1857517 0.13837077 -0.12830454
000360 ea cf 45 3e 5b ea ec 3d 3a 13 90 3d 36 c6 d9 3c
       0.19317594 0.11568137 0.07034917 0.026583772
000370 58 8d 38 3e 90 2e 58 bd ca 55 c7 bd 99 e6 28 3e
       0.18022668 -0.05277878 -0.0973316 0.16494216
000380 49 af a0 3d 55 3a 86 3d db 20 82 bd e7 9a b1 3d
       0.07845933 0.06554095 -0.06353923 0.086721234
000390 22 13 77 3e 6a 52 d1 3d dc 88 7a bb cb 62 82 bd
       0.24128392 0.10220797 -0.0038228547 -0.063664995
0003a0 34 90 e1 bd fb ff 13 3e ac 65 72 3d 8e d0 da bc
       -0.11013833 0.14453118 0.059178993 -0.026710775
0003b0 25 34 3d bd 50 23 7d 3c 23 9a 07 be 3a 0e a7 3d
       -0.046192307 0.015450314 -0.13242392 0.081570104
0003c0 32 f5 85 bd ab f9 3a be 59 d1 a7 3d 42 7f ad bb
       -0.06540908 -0.18259303 0.08194227 -0.0052947113
0003d0 29 17 4d bd 5a 4f 0d 3d 0a da ec bc 5d 49 2e 3e
       -0.050070915 0.034499504 -0.028912563 0.17020173
0003e0 10 8c a0 bd 0a 95 45 bd 0f 13 e0 bd 15 05 8c 3c
       -0.07839215 -0.048237838 -0.10941135 0.017092267
0003f0 60 6e e1 bc 1a bb 54 bd 18 1d a8 bd f4 4c 51 be
       -0.027518451 -0.051936246 -0.08208674 -0.20439512

blocks.0.fcn_layer.bias f4 [32]
000000 fd 10 89 3c da fa ab 3d 19 c0 e0 3d 5d 38 b3 bd
       0.016731733 0.083974555 0.1097414 -0.08750985
000010 23 83 22 3e df c0 fa 3d 2b 29 d1 3d 00 04 ef 3c
       0.15870337 0.122438185 0.1021293 0.029176712
000020 6d 7e d4 bc 63 90 a5 bd fd 43 4c 3d e3 de 0f be
       -0.02593919 -0.0808418 0.049869526 -0.14049868
000030 2b 88 90 3c fc ef 1b bd 12 67 0c 3e d2 de 04 be
       0.017643055 -0.038070664 0.13711193 -0.12975624
000040 06 b8 82 3d 8d 2a 72 3c 1b e1 09 3e 6c 4a ee bd
       0.06382756 0.014780653 0.13464777 -0.116352886
000050 2c a4 f5 bd bf 7c 22 3e 3a 30 9b 3d cc a2 1e bd
       -0.11994204 0.158679 0.07577558 -0.038729474
000060 02 dc 7a bd 63 9e 30 be 56 47 65 bd ec 85 a1 3d
       -0.061244972 -0.1724792 -0.055976234 0.07886872
000070 69 d6 b2 3d 52 67 77 3d 17 2d 0c be 64 88 47 3e
       0.08732302 0.06040127 -0.13689075 0.19485623

blocks.0.layer_norm.weight f4 [32]
000000 c2 15 85 3f 1f 8e 93 3f ce b7 79 3f 11 59 91 3f
       1.0397265 1.1527747 0.9754609 1.1355306
000010 a3 d8 85 3f 51 34 a7 3f ac f7 8d 3f 18 53 a5 3f
       1.0456737 1.3062841 1.1091208 1.2915983
000020 7b 50 8b 3f 43 6b 82 3f 13 b2 a5 3f 2e 48 91 3f
       1.0883936 1.0188984 1.2944969 1.1350152
000030 1f 7f a5 3f 9d be b6 3f 20 df 94 3f a1 0f 98 3f
       1.2929419 1.427692 1.1630592 1.187977
000040 4a ce 8c 3f 22 b8 87 3f 67 9c 86 3f d8 cc 82 3f
       1.1000454 1.0603068 1.051648 1.0218763
000050 69 28 a4 3f da 3d 8d 3f 34 05 a9 3f 69 15 8c 3f
       1.2824832 1.1034501 1.3204713 1.0944034
000060 21 ae 88 3f cb 82 a1 3f c6 2b 92 3f 76 1e 8f 3f
       1.067814 1.261804 1.1419609 1.1181171
000070 5c a8 74 3f 38 8c a8 3f 35 11 75 3f 2d 18 90 3f
       0.95569396 1.3167791 0.9572938 1.1257378

blocks.0.layer_norm.bias f4 [32]
000000 cf 42 70 3d 0c 0c 0e 3e 82 4a 8f bc fc ae e4 3d
       0.058657464 0.13871783 -0.017491583 0.11166188
000010 99 35 7b 3d 67 6a 91 3e f9 ce 8c 3d cf 47 8f 3e
       0.06133041 0.2840149 0.068754144 0.27984473
000020 86 20 a7 3d e4 f5 8d 3c 32 2a 93 3e 0b 3b 2b 3d
       0.081605 0.017329164 0.2874313 0.041804355
000030 f7 07 92 3e 21 1d ab 3e 33 6d a6 3d 35 35 db 3d
       0.28521702 0.3342066 0.08126297 0.10703508
000040 41 b7 5e 3d 5e f8 0a 3d b7 aa a5 3d 57 0b d4 bc
       0.054373983 0.033928268 0.08089202 -0.025884314
000050 4b b4 8e 3e ee 2f 8c 3d 71 c4 91 3e 14 7e 61 3d
       0.27871928 0.06845079 0.28470185 0.055051878
000060 81 69 88 3d fe 34 8b 3e c7 c6 97 3d 8a 54 cd 3d
       0.06660748 0.27188867 0.07410961 0.1002589
000070 9d 12 30 bd b8 99 93 3e 37 ad 5a bd 3d aa 97 3d
       -0.0429865 0.28828216 -0.053387847 0.07405517

last_layer.weight f4 [1, 32]
000000 f8 b7 fd 3c 9a 4d 25 3e 36 15 2e bd 25 af 1e 3e
       0.030971512 0.16142884 -0.042500697 0.154965
000010 15 44 30 3d 3a b9 ae be a9 1b 64 3e ea 37 b0 be
       0.043033678 -0.34125692 0.22276177 -0.3441766
000020 b1 d9 3d 3e 35 00 1f 3d 4e 5d b4 be 82 cd 87 3e
       0.18540074 0.038818557 -0.35227436 0.26523978
000030 e6 8c ae be 92 4d bd be d1 9c 3b 3e 91 8f 09 3e
       -0.34091872 -0.36973244 0.1832154 0.13433672
000040 93 db ec 3d f5 3d bb 3d 90 6b 0d be ea 59 79 3d
       0.11565318 0.09142677 -0.13810563 0.060876764
000050 cc a0 b7 be 6a b5 c2 3d 1e 46 b4 be b3 12 5c 3e
       -0.35864866 0.09507258 -0.35209745 0.21491508
000060 aa 34 93 3d eb 6a b8 be d0 27 9c 3e 1c 17 e5 3d
       0.07187779 -0.36019072 0.30499125 0.111860484
000070 9b f9 66 3a 38 5a b2 be 35 dd 7e bd 39 73 78 3e
       0.0008810998 -0.34834456 -0.06222268 0.24262704
