my_custom_model/activate_assistant_removed_augmentation.onnx (onnx, 206292 bytes, 9 tensors)

layer1.weight f4 [32, 1536]
00000000: 917a e6bc c8bb f63b 4482 303c 167e fe3b
00000010: bb3e 6fbc dfcd 5d3c 1229 c0bb f8e6 8dbc
00000020: 7f9c c4bb f9b9 593c 4f69 c9bc d4f6 173b
00000030: e2b8 9ebc 377a 26bc 272f f73b 1270 523c
00000040: 1bd4 a9bb d811 cc3c 5072 d5bc 43aa b7bc
00000050: 0b86 22bb c797 56bc 1d16 56bc a3b6 17bd
00000060: f610 19bc 2af0 9abc 9c40 4f3c a496 b3bc
00000070: aa5c f03b 80df 61bc fdfd a139 467e c0bc
00000080: b192 a93b 3888 b2bc ef2b be3c cbd6 85bc
00000090: 5eb2 97bc 5dbd 10bc a44b 0b3a 4e07 4c3c
000000a0: a633 a9bc ac91 10bc eec7 dc3a 4da6 253c
000000b0: c28f d2ba 7302 7a3c 3a25 2bbb 3013 913b
000000c0: 1d6d 653c b8d3 6ebb 8cfc 2e3a d20f 9fbb
000000d0: e1eb 0dbc aa1c c93c eafa b2bc 52d0 0cbc
000000e0: 8380 8dbc 7191 f53b b857 383c eff2 ce3b
000000f0: 2717 72bb 1c64 4bbc c406 c23c 34e9 c2bc
00000100: f4af c0bc abb4 713c 5811 bc3b 7de2 07bc
00000110: eb92 003b cfd3 dfbc 44b7 11ba 81c4 d9ba
00000120: b599 173c 2a34 13bc 8363 7f3c 8f56 753b
00000130: 442b 273c aecf ad3c 2152 093c ba7d 313c
00000140: a946 aa3c c59f bebb e74f b4bc d0fc 203c
00000150: 90b7 173b 2a1b b3bc f12c e03b 61a5 3abc
00000160: ab48 a63c a94c 24b9 1f02 b23c ad63 bcbc
00000170: b9c1 823c 5aa4 8b39 01df 2c3c 72ec e43c
00000180: c801 94bc 121c 383c aa31 523c 2c02 bebc
00000190: afa7 da3c c7a8 5c3c 5678 613c c9fc 293c
000001a0: 3ff0 d73b 4a4c ad3c cc3e 043c 05f8 393b
000001b0: ca39 44bc f5fe b73c 227f a53c 2c78 ac3c
000001c0: 5bc8 f0bc 2257 303c 17c9 d1bb b6d5 873b
000001d0: f307 fb3a 3a46 d03c ee10 5abc 5d51 f23b
000001e0: c20b fbbb 1508 9ebc db04 bcbc 16c8 70bc
000001f0: dbd3 c63c cafa b3bc 35bb a63c 3833 babb
00000200: 271c 763c 816c fcbb 3757 023d 5e5b b03c
00000210: 9d98 98bc 4f0a 6ebb 6d6f 99bc c8b3 2dbc
00000220: ba1a 98bc 18dc 96bc d61b 6ebc 652c 3aba
00000230: 7f2f 9ebb b60b d1bc 1760 17bc 7013 77bb
00000240: f271 413c 4003 b03c 30ad 9e38 2a11 4b3b
00000250: 8357 0bbc 7eed 813c f311 083c 72db 213c
00000260: c232 64bb e91b 06bc c52e 8d3b d343 1eba
00000270: 3b1c 5ebc 65b8 a93c eec4 c53c 581e efbb
00000280: 12bd 83ba 0ca0 ad3c 5372 cf3c 471b 8ebc
00000290: 61cc 123c e97f ca3b 4b4c 2bbc 333a d6bc
000002a0: 6ad7 b83c 3b37 f0bb a769 b13b e3d0 22bc
000002b0: b9c2 ea3b b7ac 3938 9743 9d3b 5beb a1bc
000002c0: b852 2cbc 4a3f eb3b a2c3 d6bc fdee 503c
000002d0: 4ae9 4ebc f92d 78bc 5dbe 0dbc 6004 92bc
000002e0: 49df 193d ba90 8d3b 77f3 103d c776 983c
000002f0: 8cec abbb 62f9 673c 53aa bd3c 4231 cb3a
00000300: 3f9f 6f3c 721e 883c 3acb c53c 55fd 3abc
00000310: 4fa1 84bc c921 8fbb 488c 1abc c068 5f3c
00000320: 39a2 a43c 421b 27bc d52e 51bc 545c 303c
00000330: 3b83 8bbc 75c3 0ebc 5012 86ba e39a 333c
00000340: f4ef 6d3a f14a c03c 9280 a93b ca6e 54bc
00000350: 8d67 a63c 825a 25bc 3863 973c 4c99 0a3c
00000360: 5793 dc3b d0af d0bb 27b1 f53b 63c0 48bc
00000370: 2d9e 52bb a3d5 0ebc a069 abbc d773 d43b
00000380: 0cfc ecbb 26d1 e33c 19f1 e63b 39a4 493c
00000390: b5ff 5e3c a1ad 48bc b237 4dbc f17c a1bc
000003a0: 865a c3bc eb9a 25bd ec05 d9bc 3142 c5bb
000003b0: 7d36 113c 1ccd eabc b020 1f3b 8e05 a0bb
000003c0: c55c fbbc d1c0 85bc 1889 133b d9c2 343c
000003d0: 020a b43c f2d9 d03c 1eb6 84bb ff12 22bc
000003e0: a3b0 893c 055b d03b 886a 883c 7ed6 87bc
000003f0: 02d3 e9bc d655 a1bb 4592 943c d044 c3bc
-0.028134616 0.0075297095 0.010773245 0.0077664955 -0.014602358 0.013537853 -0.005864271 -0.017322049
-0.006000101 0.013288968 -0.024586348 0.0023187893 -0.019375268 -0.010160974 0.007543463 0.012844102
-0.0051827556 0.024910852 -0.026055485 -0.022420054 -0.0024799134 -0.01309771 -0.013066796 -0.03703941
-0.009342423 -0.018913347 0.012649681 -0.021922417 0.007335265 -0.013786197 0.0003089755 -0.023497712
0.0051749577 -0.02179347 0.023214309 -0.016337773 -0.01851767 -0.00883421 0.00053137005 0.012452913
-0.02065451 -0.008823793 0.0016844252 0.01011045 -0.0016064572 0.015259373 -0.0026114718 0.004427336
0.014003065 -0.0036442112 0.00066752057 -0.004854181 -0.008662195 0.0245498 -0.02184816 -0.008594589
-0.017273193 0.0074941446 0.0112513825 0.006315581 -0.003694007 -0.012414005 0.023684867 -0.02379284
-0.023521401 0.014752547 0.005739372 -0.008293745 0.001961882 -0.027322678 -0.000555862 -0.0016614349
0.009252955 -0.008984605 0.01558769 0.0037435626 0.010203186 0.021217193 0.008381397 0.010833198
0.020785647 -0.005817386 -0.022010757 0.0098259 0.0023150183 -0.021863539 0.006841295 -0.0113919685
0.020298323 -0.00015668817 0.021729527 -0.022996748 0.015961515 0.00026634597 0.010551215 0.027944777
-0.018067256 0.011237161 0.012829224 -0.023194395 0.026691286 0.013467974 0.0137616005 0.01037521
0.006589919 0.021154542 0.008071613 0.002837659 -0.011976669 0.02246044 0.020202223 0.021053396
-0.029392412 0.010762962 -0.0064021456 0.0041453494 0.0019152149 0.025424112 -0.0133097 0.007394953
-0.0076613137 -0.019290963 -0.022951534 -0.014696142 0.024270942 -0.021970171 0.02035294 -0.0056823753
0.0150213605 -0.0077033644 0.031821456 0.021527942 -0.01862746 -0.0036322062 -0.01872989 -0.010601945
-0.018567432 -0.018415496 -0.014533004 -0.0007101952 -0.0048274393 -0.02551828 -0.009239218 -0.0037700795
0.011806952 0.021485925 7.566286e-05 0.0030985572 -0.008504751 0.015860315 0.008305061 0.00987898
-0.0034820293 -0.008185365 0.004308554 -0.0006037328 -0.013556535 0.020717809 0.024141755 -0.0072973184
-0.0010050854 0.02119448 0.025323069 -0.017346991 0.008959861 0.006179799 -0.010455201 -0.026150798
0.022563655 -0.0073308027 0.005414206 -0.009937498 0.007164326 4.426829e-05 0.004799317 -0.019765547
-0.010517769 0.0071791755 -0.026216332 0.012752292 -0.012628863 -0.0151476795 -0.008651343 -0.017824352
0.037566457 0.0043202313 0.035388436 0.018611325 -0.0052467044 0.014158579 0.023152506 0.0015502351
0.01462537 0.01661608 0.024144758 -0.011412938 -0.0161902 -0.004368041 -0.00943286 0.013635814
0.020096885 -0.01019937 -0.012767513 0.0107642 -0.017030349 -0.008713593 -0.0010228846 0.010962221
0.00090765883 0.023473235 0.0051727975 -0.012965867 0.020313049 -0.0100923795 0.018479928 0.0084594
0.0067314315 -0.0063686147 0.007497925 -0.0122529 -0.0032137737 -0.008717927 -0.02092439 0.0064835357
-0.0072321948 0.02780969 0.007047784 0.01230722 0.01361077 -0.012248428 -0.012525486 -0.019712897
-0.023846876 -0.040430944 -0.026492082 -0.0060198535 0.008863089 -0.028662257 0.0024280958 -0.0048834747
-0.030683884 -0.016327294 0.0022512134 0.011032783 0.021977428 0.02549455 -0.0040500304 -0.009892224
0.01680786 0.0063585066 0.01665236 -0.01658177 -0.028543 -0.0049235625 0.018136153 -0.023836523

layer1.bias f4 [32]
00000000: 2802 42bc 7d4c 863c 4a43 573c 918b 13bb
00000010: 6ded f5bb 5eb5 9f3c 9cae 3f3c 6394 463c
00000020: b198 aa3b 3d29 323c 38ed 863c 4754 09bc
00000030: d494 ae3c f0ec 93bc 7db4 9e3c be02 943c
00000040: 9837 253c 7d94 4c3a 142a 4abc a78b e33b
00000050: 8eec 2c3c 9477 c03c a84b 17bc 3351 aa3c
00000060: 6382 203c 1213 673c fd50 36ba cc84 4ebc
00000070: 5111 743c 8a67 81b9 40eb 373c e6de 8b3c
-0.011841334 0.016393894 0.013138602 -0.0022513608 -0.00750511 0.019495662 0.011699345 0.012120339
0.0052061905 0.01087409 0.016470537 -0.00838191 0.021311201 -0.018057317 0.019373173 0.018067714
0.010084055 0.0007804109 -0.012339134 0.006944138 0.010554446 0.02349452 -0.009234346 0.020790672
0.009796712 0.014103668 -0.0006954817 -0.012604903 0.014896707 -0.0002468194 0.011225522 0.01707406

layernorm1.weight f4 [32]
00000000: b859 7e3f b824 803f 96a4 7c3f 53ca 7f3f
00000010: 33be 7f3f 8464 763f 8ec2 7f3f 6afe 803f
00000020: 38f1 803f b332 813f edf6 803f 17f1 813f
00000030: 5f86 833f 1e6a 823f e7b5 803f 564b 813f
00000040: d557 803f 1c83 7f3f ce9b 7f3f a619 7e3f
00000050: f419 793f 10fb 793f c573 7f3f ae69 7f3f
00000060: a5d3 7d3f eef9 7e3f e27e 7f3f a2ae 823f
00000070: 28b4 813f 518a 7d3f dc7c 7f3f 0b88 833f
0.9935565 1.0011206 0.9868864 0.999181 0.99899596 0.96247125 0.9990624 1.0077641
1.0073614 1.0093597 1.0075356 1.01517 1.0275382 1.0188634 1.0055512 1.0101116
1.0026804 0.9980943 0.99847114 0.99257886 0.97305226 0.97648716 0.99786025 0.9977063
0.9915107 0.9960011 0.9980298 1.0209544 1.0133104 0.9903918 0.99799895 1.0275892

layernorm1.bias f4 [32]
00000000: ee3f 50ba 5629 693b 0c03 db39 3b07 9dbb
00000010: 8fb8 ae3c 07b1 713c dbd7 2ebb 7834 c03b
00000020: 6456 6c3b c3ca dc3b 1304 273c ce10 9a3c
00000030: 6c51 6a3c 53b8 793c a8ea 86bc 36ac f43b
00000040: e3ef 933b 92e6 dfbb 4dc3 ebbb 4985 40bb
00000050: d74e 46bd 4cf0 423b 3d13 a43b 5d4e 0cbc
00000060: 5780 b63b 8731 9aba 5558 f2bb be18 9b3c
00000070: df1c 163c db01 5cbb 4032 febb d43d df3c
-0.00079440966 0.0035577617 0.00041773205 -0.0047921217 0.021328239 0.014751679 -0.0026678953 0.0058656298
0.0036062235 0.0067380383 0.010193842 0.018806841 0.014301639 0.0152417 -0.016469315 0.007466818
0.0045146807 -0.006832906 -0.0071949125 -0.002937632 -0.04841503 0.002974528 0.005007176 -0.008563605
0.0055694985 -0.0011764028 -0.007395784 0.018932696 0.009162157 -0.0033570442 -0.007757455 0.027251162

blocks.0.fcn_layer.weight f4 [32, 32]
00000000: 8a20 26bd 1afa 613d d137 c2bd d7f3 e93a
00000010: fc05 d7bc 7e0a 8ebb c9da 1a3e 3c91 93bb
00000020: fdb4 9dbd 3f5b 243e 8528 f53d b012 3c3d
00000030: a545 98bc 92bd 17be eb0d f63d 4e83 fe3d
00000040: ebd0 ebbd d90a 2e3e 2855 cf3d 9cb8 c5bd
00000050: f389 3b3d 897e b43c a97a 53bd c97d 7dbd
00000060: fdd1 d8bd 8e4b 853d db3b 9cbd 35a6 053e
00000070: b9ba 1f3d 7a82 ca3d 1e43 a93b 4d34 5b3c
00000080: 0d69 9ebd eef4 19bd c525 57bd 1c84 67bc
00000090: 2220 f13d 7de1 a3bd 498a 92bd f609 b9bd
000000a0: 555c 0a3d 0094 173e bce0 fbbd 7edd 0ebd
000000b0: 1f20 6e3d 7b31 5fbd ac15 bf3d b0f1 02bd
000000c0: 978c 863a dadd 1bbe fa72 503d 100a 33bd
000000d0: a397 573e 85dd e33c 1b32 0b3e 5da6 03be
000000e0: 44d7 10be 07bf b23c 7e97 3b3d 509d e33d
000000f0: 082c 9f3c 5ebd 37bc a662 a63d 602b 503c
00000100: dd58 80bd 6f6c 12bc 1ffd 0e3c f9eb a8bd
00000110: 0450 b5bc a50a dc3c 4e11 1e3e 2274 ee3d
00000120: 7619 753a e71e 483d da0f 3f3e 79ce 62be
00000130: 10b5 343d 8d95 3abe 7ccf ffbd 1995 aabd
00000140: c1c8 1dbb 55ad 2dbd 794e 2e3e 1a72 2dbe
00000150: 0ed9 4e3a 6780 7c3d 7949 033d da0b 643d
00000160: 189c 4e3d c205 1ebe bafa 24bd aed7 f93d
00000170: 7850 343d de6f 1e3d 7387 0fbe a736 40bd
00000180: 4693 a13b 35b8 213e fe06 7ebd 4281 03be
00000190: c613 923c 0fa6 efbd 68bb 1f3e 7614 0e3e
000001a0: d5a4 ee3d 879d 363d ee2b 14be bc2d 17be
000001b0: de75 d33d 58fc fd3d 433a 0c3e ab6d 243d
000001c0: de95 04be cad2 173d 0e94 113e ba58 22be
000001d0: c0da 38be 102b ca3d 058d d3bd ff2b f3bc
000001e0: 09bc c4bd fe74 c9bd 0a56 573a fa44 15be
000001f0: d35e 433e d6c1 21be ec13 083e b2bf a1bd
00000200: 4fca 1bbe 4029 36be 47a2 fd3b 27ad 1d3e
00000210: bafa d43d 4db3 fe3c d70f 353e 6b59 a43c
00000220: 0678 a43d 696d c0bc 85e7 ffbd 5e1a 6e3d
00000230: 3412 163c 94f4 1d3e 54e9 2fbd b247 8d3d
00000240: 9f32 f9bd 1f4b bbbd 7011 fdbd 7768 30be
00000250: 41a1 963d 8ee1 c33d 2c81 9f3d 40cb 47bd
00000260: 659f b43d d0c9 dd3d d6ea dabd 74d4 e9bc
00000270: 07fc 10bc 237f 983c 9480 18be 2ab1 8bbc
00000280: 0e89 813d 290a 26be 1fe7 4a3e 39ec 16be
00000290: ad83 42bd 341d 32bc d0c9 023e f999 103e
000002a0: 97ce 77bd 7b0d b0bc 5287 ffbc f664 433e
000002b0: c6fe 173d be4f bebd 3d4c 07be fb0a 883d
000002c0: c539 ad3d 08b2 bb3d 89df 01be c6f4 1c3e
000002d0: 322e 13be 7700 04bd 5fea 54bd 0a02 88bd
000002e0: e733 bdbd bda0 e5bd a391 31be 4176 bc3c
000002f0: e22c 7a3d 78e0 aebd c180 e33d 4594 143e
00000300: a356 1a3e 010e c6bd 36ce 943d 9650 4a3d
00000310: b21a 803c 1d39 40bc 5bd3 2a3e 6ed8 f7bd
00000320: f0fe f03b 0f9e 11be 2069 4f3d 7a5c 163d
00000330: 15ad cabd 9b6e 1c3e 5d13 05bd 6cd8 273d
00000340: 7d24 1cbe 0343 edbc d62e 9f3d e0dd 0fbe
00000350: 9b45 a93d 8bc0 47bd 0a1d c63d ae17 e23d
00000360: 4a7f 6c3c cd5f ea3c 1b1f 5fbd 81e0 2a3c
00000370: 76ae 03be b387 173e e00c b93c b307 a5bd
00000380: 9bdb 783d 7751 0ebe 4b8f c13d e7c4 af3c
00000390: 2576 a4bd d188 c3bc 3e39 a9bd 8780 a43d
000003a0: f642 d33d 7256 d43d 7f0f a83d d770 c43c
000003b0: a829 bdbd a32c b13d 856f cfbb 97fb 34bd
000003c0: 3176 16be 0cd8 423d 701a 8cbd 9b22 103e
000003d0: 80fe 263e 891f 29be 407e a8bc 7523 39bd
000003e0: 276a 30be 8f26 fa3c c83b 4d3d 53c3 073e
000003f0: 21e2 33bd a287 5d3d 3523 e53c bf63 0cbe
-0.040558375 0.055170156 -0.094833024 0.0017849159 -0.02624797 -0.004334747 0.15122522 -0.0045033973
-0.077005364 0.16050433 0.11970619 0.04591626 -0.018587897 -0.14818409 0.120143734 0.12427388
-0.11514457 0.16996326 0.10123664 -0.09654352 0.045785856 0.022032993 -0.05163065 -0.061887536
-0.10586927 0.065085515 -0.07628604 0.13051684 0.038996432 0.09888168 0.0051654717 0.013379169
-0.077348806 -0.0375871 -0.052526254 -0.014130618 0.11773707 -0.08001993 -0.07155282 -0.09035103
0.03377946 0.14802551 -0.12298724 -0.0348792 0.0581361 -0.054490548 0.093303055 -0.031968772
0.0010265288 -0.15221348 0.0508909 -0.04371077 0.21053939 0.02781559 0.13593332 -0.12856431
-0.14144617 0.021819605 0.04579877 0.11113989 0.019430175 -0.011214582 0.081242844 0.012705654
-0.06266949 -0.008936985 0.008727341 -0.08248133 -0.022132881 0.026860544 0.15436289 0.11643244
0.0009349802 0.048857596 0.1865839 -0.22149076 0.044117987 -0.18221112 -0.124907464 -0.08329219
-0.0024075957 -0.04240163 0.17022122 -0.16938058 0.000789062 0.06164589 0.03205249 0.055675365
0.05044183 -0.15431884 -0.040278174 0.12199341 0.044022053 0.038680904 -0.14016514 -0.04692712
0.0049308864 0.15792926 -0.062018387 -0.12842277 0.017831694 -0.11701595 0.15598834 0.13874993
0.11652533 0.044583824 -0.14469883 -0.1476354 0.10325216 0.124016464 0.136941 0.04014365
-0.12947795 0.03706626 0.14216635 -0.15854159 -0.18052197 0.09871495 -0.10329632 -0.029684065
-0.09606177 -0.098367676 0.000821442 -0.14577094 0.19079141 -0.15796599 0.1328885 -0.07897891
-0.15213893 -0.17789173 0.007740292 0.15398084 0.10399385 0.031091357 0.17681824 0.020062169
0.08030705 -0.02348967 -0.12495331 0.058130614 0.009159613 0.1542533 -0.04294713 0.068984404
-0.12167858 -0.091451876 -0.123568416 -0.1722735 0.073549755 0.095645055 0.077883095 -0.04877782
0.088194646 0.10829508 -0.10689323 -0.028543688 -0.0088491505 0.018615311 -0.14892799 -0.017052252
0.06324969 -0.16214813 0.19814728 -0.1473855 -0.047488857 -0.01087122 0.12772298 0.14121236
-0.060499754 -0.021490803 -0.031192455 0.19081482 0.037108205 -0.09292553 -0.13212676 0.06642719
0.08458284 0.09164816 -0.12682928 0.15327749 -0.14373091 -0.032227006 -0.051981326 -0.06641014
-0.09238415 -0.11212299 -0.17340712 0.023005607 0.06107796 -0.08538908 0.11108542 0.14509685
0.15072112 -0.0967064 0.07265894 0.04939326 0.01563773 -0.011732367 0.16682188 -0.121018276
0.0073546097 -0.14220451 0.050637364 0.036709286 -0.09896294 0.15276568 -0.03248917 0.04097788
-0.15248294 -0.028962618 0.07772605 -0.14049482 0.08265229 -0.048767608 0.096735075 0.11039673
0.014434645 0.028610134 -0.054473024 0.010429502 -0.1285952 0.14797859 0.022589147 -0.08058109
0.060756307 -0.13898264 0.09451159 0.021456195 -0.08030347 -0.02386895 -0.08262871 0.08032327
0.10315506 0.10368051 0.08206081 0.023979587 -0.09236461 0.08651092 -0.006330433 -0.044185247
-0.14693524 0.04756932 -0.0684098 0.14075701 0.16308022 -0.16515936 -0.020568013 -0.04519983
-0.17227994 0.030535964 0.05010584 0.13258104 -0.043916825 0.054084428 0.02797089 -0.13709925

blocks.0.fcn_layer.bias f4 [32]
00000000: 5c6b c43d abc9 b5bd 9fd9 0dbd 748c 733d
00000010: 9d32 0cbd 90a8 3cbd 7c6d 06be e494 4c3d
00000020: 188c 1cbe 0d7c 253c 7c66 88bd 8d06 b2ba
00000030: 1328 6c3d f2a7 f93d 1534 193e f909 adbd
00000040: fffe 52bd 059f 05bd 6219 04bd a036 e8bd
00000050: 5ca6 1bbc 6f14 243e a9c1 2bbe b7d4 03be
00000060: 27a7 1f3d e3d1 c9bd 7fd0 e6bd 4da3 6fbd
00000070: 6afb 113e b55a 1d3e 5a50 17be 51b3 25be
0.0959079 -0.08876356 -0.034631368 0.05946012 -0.034227956 -0.04605919 -0.13127702 0.04994668
-0.15287817 0.010100377 -0.06660172 -0.0013582275 0.057655405 0.12190236 0.14961274 -0.08449168
-0.051512714 -0.032622356 -0.03225077 -0.11338544 -0.009500112 0.1602342 -0.16773094 -0.12874113
0.03897777 -0.09854486 -0.11270236 -0.058505345 0.14256063 0.15366633 -0.14776745 -0.16181685

blocks.0.layer_norm.weight f4 [32]
00000000: 197a 803f e1b5 823f 4766 813f 19d3 a63f
00000010: c414 993f f6d0 9f3f 75a6 7f3f b977 7f3f
00000020: bdbe 7f3f 2d0f 803f 7ef3 873f c95f 853f
00000030: baa6 b03f 7c6e a13f a692 7f3f 8e40 813f
00000040: 96a9 803f fe04 823f a8c5 9c3f 1199 803f
00000050: d506 9f3f 2e6e a23f f154 873f 16d9 9a3f
00000060: 231f 823f 833c 9f3f 8bea 813f 4ba9 8b3f
00000070: 83d3 7f3f c8df 833f 0dcb 7b3f 7b6e 7d3f
1.0037261 1.0211755 1.0109338 1.3033172 1.1959462 1.2485645 0.9986337 0.9979206
0.9990042 1.0004631 1.0621183 1.0419856 1.3800881 1.2611842 0.9983314 1.0097826
1.0051754 1.0157773 1.224782 1.0046712 1.242396 1.2689874 1.0572797 1.2097499
1.0165752 1.2440342 1.0149702 1.0911039 0.99932116 1.0302668 0.98356706 0.98996705

blocks.0.layer_norm.bias f4 [32]
00000000: 8fdf 07bb 0cc7 ee3d 50ef b63c 92f4 883e
00000010: 48d3 5f3e 2a63 723e 9fbb dcba 7e93 97bb
00000020: f4d8 8bba 4b1a 993b 89b9 953d befd e13c
00000030: 371e 963e 84ce 7e3e 5f4f 05bc 3137 813c
00000040: c22f 193d 240b 143c ddfa 6b3e b68c 6e3c
00000050: 4824 693e 13f1 7e3e 2f1d 9f3c 1b5e 633e
00000060: 45b6 913b 98d4 763e b6ef 943c d7cc 233d
00000070: e741 55ba 25e3 9b3c 3bab 9fbc 1ec2 3dbc
-0.0020732617 0.11659059 0.02233091 0.26749092 0.21857941 0.2367064 -0.0016840583 -0.0046257367
-0.0010669515 0.004672324 0.07310779 0.027586814 0.29319927 0.24883467 -0.008136599 0.015773388
0.03739906 0.009035859 0.23044915 0.014559915 0.22767746 0.2489665 0.019423096 0.22203867
0.004446777 0.24104536 0.01818071 0.039990272 -0.00081351254 0.01902921 -0.019490829 -0.011581926

last_layer.weight f4 [1, 32]
00000000: 85b1 1f3e fe8c 8b3d adda 5cbd 7823 92be
00000010: d191 afbe 92c5 b5be 3837 063b 206c 193e
00000020: 312b cc3d 6372 073e 5b99 0a3e 8170 013e
00000030: 55f0 a9be 7a9e 98be bbbe ed3d 21b0 3b3d
00000040: d6f8 2fbd 273d 353e ce68 a5be 5a74 093e
00000050: 945e c5be 6ebd 9cbe 49ae 573e 99e7 afbe
00000060: a0f1 313e 9f8b 9abe 93a1 133e 20be 603e
00000070: 5dc9 6e3d 00c0 853d 95d0 fcbb 70ee 5dbc
0.15595062 0.068140015 -0.053919483 -0.28542686 -0.34290937 -0.35502297 0.002047969 0.14982653
0.099691756 0.13227229 0.13535063 0.12640573 -0.3319117 -0.29808408 0.116086446 0.045822266
-0.042961918 0.17699109 -0.32306522 0.13423291 -0.3854872 -0.30613273 0.21062578 -0.34356382
0.17377329 -0.30184647 0.14417104 0.21947527 0.058297504 0.06530762 -0.0077152946 -0.013545617
